node {
  name: "global_step/Initializer/zeros"
  op: "Const"
  attr {
    key: "_class"
    value {
      list {
        s: "loc:@global_step"
      }
    }
  }
  attr {
    key: "_output_shapes"
    value {
      list {
        shape {
        }
      }
    }
  }
  attr {
    key: "dtype"
    value {
      type: DT_INT64
    }
  }
  attr {
    key: "value"
    value {
      tensor {
        dtype: DT_INT64
        tensor_shape {
        }
        int64_val: 0
      }
    }
  }
}
node {
  name: "global_step"
  op: "VariableV2"
  attr {
    key: "_class"
    value {
      list {
        s: "loc:@global_step"
      }
    }
  }
  attr {
    key: "_output_shapes"
    value {
      list {
        shape {
        }
      }
    }
  }
  attr {
    key: "container"
    value {
      s: ""
    }
  }
  attr {
    key: "dtype"
    value {
      type: DT_INT64
    }
  }
  attr {
    key: "shape"
    value {
      shape {
      }
    }
  }
  attr {
    key: "shared_name"
    value {
      s: ""
    }
  }
}
node {
  name: "global_step/Assign"
  op: "Assign"
  input: "global_step"
  input: "global_step/Initializer/zeros"
  attr {
    key: "T"
    value {
      type: DT_INT64
    }
  }
  attr {
    key: "_class"
    value {
      list {
        s: "loc:@global_step"
      }
    }
  }
  attr {
    key: "_output_shapes"
    value {
      list {
        shape {
        }
      }
    }
  }
  attr {
    key: "use_locking"
    value {
      b: true
    }
  }
  attr {
    key: "validate_shape"
    value {
      b: true
    }
  }
}
node {
  name: "global_step/read"
  op: "Identity"
  input: "global_step"
  attr {
    key: "T"
    value {
      type: DT_INT64
    }
  }
  attr {
    key: "_class"
    value {
      list {
        s: "loc:@global_step"
      }
    }
  }
  attr {
    key: "_output_shapes"
    value {
      list {
        shape {
        }
      }
    }
  }
}
node {
  name: "input/input_producer/Const"
  op: "Const"
  attr {
    key: "_output_shapes"
    value {
      list {
        shape {
          dim {
            size: 888
          }
        }
      }
    }
  }
  attr {
    key: "dtype"
    value {
      type: DT_STRING
    }
  }
  attr {
    key: "value"
    value {
      tensor {
        dtype: DT_STRING
        tensor_shape {
          dim {
            size: 888
          }
        }
        string_val: "/Users/jlim2/PycharmProjects/tensorflow/markedFrames/carpet/frame0126.jpg"
        string_val: "/Users/jlim2/PycharmProjects/tensorflow/markedFrames/carpet/frame0127.jpg"
        string_val: "/Users/jlim2/PycharmProjects/tensorflow/markedFrames/carpet/frame0128.jpg"
        string_val: "/Users/jlim2/PycharmProjects/tensorflow/markedFrames/carpet/frame0129.jpg"
        string_val: "/Users/jlim2/PycharmProjects/tensorflow/markedFrames/carpet/frame0130.jpg"
        string_val: "/Users/jlim2/PycharmProjects/tensorflow/markedFrames/carpet/frame0131.jpg"
        string_val: "/Users/jlim2/PycharmProjects/tensorflow/markedFrames/carpet/frame0132.jpg"
        string_val: "/Users/jlim2/PycharmProjects/tensorflow/markedFrames/carpet/frame0133.jpg"
        string_val: "/Users/jlim2/PycharmProjects/tensorflow/markedFrames/carpet/frame0134.jpg"
        string_val: "/Users/jlim2/PycharmProjects/tensorflow/markedFrames/carpet/frame0135.jpg"
        string_val: "/Users/jlim2/PycharmProjects/tensorflow/markedFrames/carpet/frame0136.jpg"
        string_val: "/Users/jlim2/PycharmProjects/tensorflow/markedFrames/carpet/frame0137.jpg"
        string_val: "/Users/jlim2/PycharmProjects/tensorflow/markedFrames/carpet/frame0138.jpg"
        string_val: "/Users/jlim2/PycharmProjects/tensorflow/markedFrames/carpet/frame0139.jpg"
        string_val: "/Users/jlim2/PycharmProjects/tensorflow/markedFrames/carpet/frame0140.jpg"
        string_val: "/Users/jlim2/PycharmProjects/tensorflow/markedFrames/carpet/frame0141.jpg"
        string_val: "/Users/jlim2/PycharmProjects/tensorflow/markedFrames/carpet/frame0142.jpg"
        string_val: "/Users/jlim2/PycharmProjects/tensorflow/markedFrames/carpet/frame0143.jpg"
        string_val: "/Users/jlim2/PycharmProjects/tensorflow/markedFrames/carpet/frame0144.jpg"
        string_val: "/Users/jlim2/PycharmProjects/tensorflow/markedFrames/carpet/frame0145.jpg"
        string_val: "/Users/jlim2/PycharmProjects/tensorflow/markedFrames/carpet/frame0146.jpg"
        string_val: "/Users/jlim2/PycharmProjects/tensorflow/markedFrames/carpet/frame0147.jpg"
        string_val: "/Users/jlim2/PycharmProjects/tensorflow/markedFrames/carpet/frame0148.jpg"
        string_val: "/Users/jlim2/PycharmProjects/tensorflow/markedFrames/carpet/frame0149.jpg"
        string_val: "/Users/jlim2/PycharmProjects/tensorflow/markedFrames/carpet/frame0150.jpg"
        string_val: "/Users/jlim2/PycharmProjects/tensorflow/markedFrames/carpet/frame0151.jpg"
        string_val: "/Users/jlim2/PycharmProjects/tensorflow/markedFrames/carpet/frame0152.jpg"
        string_val: "/Users/jlim2/PycharmProjects/tensorflow/markedFrames/carpet/frame0153.jpg"
        string_val: "/Users/jlim2/PycharmProjects/tensorflow/markedFrames/carpet/frame0154.jpg"
        string_val: "/Users/jlim2/PycharmProjects/tensorflow/markedFrames/carpet/frame0155.jpg"
        string_val: "/Users/jlim2/PycharmProjects/tensorflow/markedFrames/carpet/frame0156.jpg"
        string_val: "/Users/jlim2/PycharmProjects/tensorflow/markedFrames/carpet/frame0157.jpg"
        string_val: "/Users/jlim2/PycharmProjects/tensorflow/markedFrames/carpet/frame0158.jpg"
        string_val: "/Users/jlim2/PycharmProjects/tensorflow/markedFrames/carpet/frame0159.jpg"
        string_val: "/Users/jlim2/PycharmProjects/tensorflow/markedFrames/carpet/frame0160.jpg"
        string_val: "/Users/jlim2/PycharmProjects/tensorflow/markedFrames/carpet/frame0161.jpg"
        string_val: "/Users/jlim2/PycharmProjects/tensorflow/markedFrames/carpet/frame0162.jpg"
        string_val: "/Users/jlim2/PycharmProjects/tensorflow/markedFrames/carpet/frame0163.jpg"
        string_val: "/Users/jlim2/PycharmProjects/tensorflow/markedFrames/carpet/frame0164.jpg"
        string_val: "/Users/jlim2/PycharmProjects/tensorflow/markedFrames/carpet/frame0165.jpg"
        string_val: "/Users/jlim2/PycharmProjects/tensorflow/markedFrames/carpet/frame0166.jpg"
        string_val: "/Users/jlim2/PycharmProjects/tensorflow/markedFrames/carpet/frame0167.jpg"
        string_val: "/Users/jlim2/PycharmProjects/tensorflow/markedFrames/carpet/frame0168.jpg"
        string_val: "/Users/jlim2/PycharmProjects/tensorflow/markedFrames/carpet/frame0169.jpg"
        string_val: "/Users/jlim2/PycharmProjects/tensorflow/markedFrames/carpet/frame0170.jpg"
        string_val: "/Users/jlim2/PycharmProjects/tensorflow/markedFrames/carpet/frame0171.jpg"
        string_val: "/Users/jlim2/PycharmProjects/tensorflow/markedFrames/carpet/frame0172.jpg"
        string_val: "/Users/jlim2/PycharmProjects/tensorflow/markedFrames/carpet/frame0173.jpg"
        string_val: "/Users/jlim2/PycharmProjects/tensorflow/markedFrames/carpet/frame0174.jpg"
        string_val: "/Users/jlim2/PycharmProjects/tensorflow/markedFrames/carpet/frame0175.jpg"
        string_val: "/Users/jlim2/PycharmProjects/tensorflow/markedFrames/carpet/frame0176.jpg"
        string_val: "/Users/jlim2/PycharmProjects/tensorflow/markedFrames/carpet/frame0177.jpg"
        string_val: "/Users/jlim2/PycharmProjects/tensorflow/markedFrames/carpet/frame0178.jpg"
        string_val: "/Users/jlim2/PycharmProjects/tensorflow/markedFrames/carpet/frame0179.jpg"
        string_val: "/Users/jlim2/PycharmProjects/tensorflow/markedFrames/carpet/frame0180.jpg"
        string_val: "/Users/jlim2/PycharmProjects/tensorflow/markedFrames/carpet/frame0181.jpg"
        string_val: "/Users/jlim2/PycharmProjects/tensorflow/markedFrames/carpet/frame0182.jpg"
        string_val: "/Users/jlim2/PycharmProjects/tensorflow/markedFrames/carpet/frame0183.jpg"
        string_val: "/Users/jlim2/PycharmProjects/tensorflow/markedFrames/carpet/frame0184.jpg"
        string_val: "/Users/jlim2/PycharmProjects/tensorflow/markedFrames/carpet/frame0185.jpg"
        string_val: "/Users/jlim2/PycharmProjects/tensorflow/markedFrames/carpet/frame0186.jpg"
        string_val: "/Users/jlim2/PycharmProjects/tensorflow/markedFrames/carpet/frame0187.jpg"
        string_val: "/Users/jlim2/PycharmProjects/tensorflow/markedFrames/carpet/frame0188.jpg"
        string_val: "/Users/jlim2/PycharmProjects/tensorflow/markedFrames/carpet/frame0189.jpg"
        string_val: "/Users/jlim2/PycharmProjects/tensorflow/markedFrames/carpet/frame0190.jpg"
        string_val: "/Users/jlim2/PycharmProjects/tensorflow/markedFrames/carpet/frame0191.jpg"
        string_val: "/Users/jlim2/PycharmProjects/tensorflow/markedFrames/carpet/frame0192.jpg"
        string_val: "/Users/jlim2/PycharmProjects/tensorflow/markedFrames/carpet/frame0193.jpg"
        string_val: "/Users/jlim2/PycharmProjects/tensorflow/markedFrames/carpet/frame0194.jpg"
        string_val: "/Users/jlim2/PycharmProjects/tensorflow/markedFrames/carpet/frame0195.jpg"
        string_val: "/Users/jlim2/PycharmProjects/tensorflow/markedFrames/carpet/frame0196.jpg"
        string_val: "/Users/jlim2/PycharmProjects/tensorflow/markedFrames/carpet/frame0197.jpg"
        string_val: "/Users/jlim2/PycharmProjects/tensorflow/markedFrames/carpet/frame0198.jpg"
        string_val: "/Users/jlim2/PycharmProjects/tensorflow/markedFrames/carpet/frame0199.jpg"
        string_val: "/Users/jlim2/PycharmProjects/tensorflow/markedFrames/carpet/frame0200.jpg"
        string_val: "/Users/jlim2/PycharmProjects/tensorflow/markedFrames/carpet/frame0201.jpg"
        string_val: "/Users/jlim2/PycharmProjects/tensorflow/markedFrames/carpet/frame0202.jpg"
        string_val: "/Users/jlim2/PycharmProjects/tensorflow/markedFrames/carpet/frame0203.jpg"
        string_val: "/Users/jlim2/PycharmProjects/tensorflow/markedFrames/carpet/frame0204.jpg"
        string_val: "/Users/jlim2/PycharmProjects/tensorflow/markedFrames/carpet/frame0205.jpg"
        string_val: "/Users/jlim2/PycharmProjects/tensorflow/markedFrames/carpet/frame0206.jpg"
        string_val: "/Users/jlim2/PycharmProjects/tensorflow/markedFrames/carpet/frame0207.jpg"
        string_val: "/Users/jlim2/PycharmProjects/tensorflow/markedFrames/carpet/frame0208.jpg"
        string_val: "/Users/jlim2/PycharmProjects/tensorflow/markedFrames/carpet/frame0209.jpg"
        string_val: "/Users/jlim2/PycharmProjects/tensorflow/markedFrames/carpet/frame0210.jpg"
        string_val: "/Users/jlim2/PycharmProjects/tensorflow/markedFrames/carpet/frame0211.jpg"
        string_val: "/Users/jlim2/PycharmProjects/tensorflow/markedFrames/carpet/frame0212.jpg"
        string_val: "/Users/jlim2/PycharmProjects/tensorflow/markedFrames/carpet/frame0213.jpg"
        string_val: "/Users/jlim2/PycharmProjects/tensorflow/markedFrames/carpet/frame0214.jpg"
        string_val: "/Users/jlim2/PycharmProjects/tensorflow/markedFrames/carpet/frame0215.jpg"
        string_val: "/Users/jlim2/PycharmProjects/tensorflow/markedFrames/carpet/frame0216.jpg"
        string_val: "/Users/jlim2/PycharmProjects/tensorflow/markedFrames/carpet/frame0217.jpg"
        string_val: "/Users/jlim2/PycharmProjects/tensorflow/markedFrames/carpet/frame0218.jpg"
        string_val: "/Users/jlim2/PycharmProjects/tensorflow/markedFrames/carpet/frame0219.jpg"
        string_val: "/Users/jlim2/PycharmProjects/tensorflow/markedFrames/carpet/frame0220.jpg"
        string_val: "/Users/jlim2/PycharmProjects/tensorflow/markedFrames/carpet/frame0221.jpg"
        string_val: "/Users/jlim2/PycharmProjects/tensorflow/markedFrames/carpet/frame0222.jpg"
        string_val: "/Users/jlim2/PycharmProjects/tensorflow/markedFrames/carpet/frame0223.jpg"
        string_val: "/Users/jlim2/PycharmProjects/tensorflow/markedFrames/carpet/frame0224.jpg"
        string_val: "/Users/jlim2/PycharmProjects/tensorflow/markedFrames/carpet/frame0225.jpg"
        string_val: "/Users/jlim2/PycharmProjects/tensorflow/markedFrames/carpet/frame0226.jpg"
        string_val: "/Users/jlim2/PycharmProjects/tensorflow/markedFrames/carpet/frame0227.jpg"
        string_val: "/Users/jlim2/PycharmProjects/tensorflow/markedFrames/carpet/frame0228.jpg"
        string_val: "/Users/jlim2/PycharmProjects/tensorflow/markedFrames/carpet/frame0229.jpg"
        string_val: "/Users/jlim2/PycharmProjects/tensorflow/markedFrames/carpet/frame0230.jpg"
        string_val: "/Users/jlim2/PycharmProjects/tensorflow/markedFrames/carpet/frame0231.jpg"
        string_val: "/Users/jlim2/PycharmProjects/tensorflow/markedFrames/carpet/frame0232.jpg"
        string_val: "/Users/jlim2/PycharmProjects/tensorflow/markedFrames/carpet/frame0233.jpg"
        string_val: "/Users/jlim2/PycharmProjects/tensorflow/markedFrames/carpet/frame0234.jpg"
        string_val: "/Users/jlim2/PycharmProjects/tensorflow/markedFrames/carpet/frame0235.jpg"
        string_val: "/Users/jlim2/PycharmProjects/tensorflow/markedFrames/carpet/frame0236.jpg"
        string_val: "/Users/jlim2/PycharmProjects/tensorflow/markedFrames/carpet/frame0237.jpg"
        string_val: "/Users/jlim2/PycharmProjects/tensorflow/markedFrames/carpet/frame0238.jpg"
        string_val: "/Users/jlim2/PycharmProjects/tensorflow/markedFrames/carpet/frame0239.jpg"
        string_val: "/Users/jlim2/PycharmProjects/tensorflow/markedFrames/carpet/frame0240.jpg"
        string_val: "/Users/jlim2/PycharmProjects/tensorflow/markedFrames/carpet/frame0241.jpg"
        string_val: "/Users/jlim2/PycharmProjects/tensorflow/markedFrames/carpet/frame0242.jpg"
        string_val: "/Users/jlim2/PycharmProjects/tensorflow/markedFrames/carpet/frame0243.jpg"
        string_val: "/Users/jlim2/PycharmProjects/tensorflow/markedFrames/carpet/frame0244.jpg"
        string_val: "/Users/jlim2/PycharmProjects/tensorflow/markedFrames/carpet/frame0245.jpg"
        string_val: "/Users/jlim2/PycharmProjects/tensorflow/markedFrames/carpet/frame0246.jpg"
        string_val: "/Users/jlim2/PycharmProjects/tensorflow/markedFrames/carpet/frame0247.jpg"
        string_val: "/Users/jlim2/PycharmProjects/tensorflow/markedFrames/carpet/frame0248.jpg"
        string_val: "/Users/jlim2/PycharmProjects/tensorflow/markedFrames/carpet/frame0249.jpg"
        string_val: "/Users/jlim2/PycharmProjects/tensorflow/markedFrames/carpet/frame0250.jpg"
        string_val: "/Users/jlim2/PycharmProjects/tensorflow/markedFrames/carpet/frame0251.jpg"
        string_val: "/Users/jlim2/PycharmProjects/tensorflow/markedFrames/carpet/frame0252.jpg"
        string_val: "/Users/jlim2/PycharmProjects/tensorflow/markedFrames/carpet/frame0253.jpg"
        string_val: "/Users/jlim2/PycharmProjects/tensorflow/markedFrames/carpet/frame0254.jpg"
        string_val: "/Users/jlim2/PycharmProjects/tensorflow/markedFrames/carpet/frame0255.jpg"
        string_val: "/Users/jlim2/PycharmProjects/tensorflow/markedFrames/carpet/frame0256.jpg"
        string_val: "/Users/jlim2/PycharmProjects/tensorflow/markedFrames/carpet/frame0257.jpg"
        string_val: "/Users/jlim2/PycharmProjects/tensorflow/markedFrames/carpet/frame0258.jpg"
        string_val: "/Users/jlim2/PycharmProjects/tensorflow/markedFrames/carpet/frame0259.jpg"
        string_val: "/Users/jlim2/PycharmProjects/tensorflow/markedFrames/carpet/frame0260.jpg"
        string_val: "/Users/jlim2/PycharmProjects/tensorflow/markedFrames/carpet/frame0261.jpg"
        string_val: "/Users/jlim2/PycharmProjects/tensorflow/markedFrames/carpet/frame0262.jpg"
        string_val: "/Users/jlim2/PycharmProjects/tensorflow/markedFrames/carpet/frame0263.jpg"
        string_val: "/Users/jlim2/PycharmProjects/tensorflow/markedFrames/carpet/frame0264.jpg"
        string_val: "/Users/jlim2/PycharmProjects/tensorflow/markedFrames/carpet/frame0265.jpg"
        string_val: "/Users/jlim2/PycharmProjects/tensorflow/markedFrames/carpet/frame0266.jpg"
        string_val: "/Users/jlim2/PycharmProjects/tensorflow/markedFrames/carpet/frame0267.jpg"
        string_val: "/Users/jlim2/PycharmProjects/tensorflow/markedFrames/carpet/frame0268.jpg"
        string_val: "/Users/jlim2/PycharmProjects/tensorflow/markedFrames/carpet/frame0269.jpg"
        string_val: "/Users/jlim2/PycharmProjects/tensorflow/markedFrames/carpet/frame0270.jpg"
        string_val: "/Users/jlim2/PycharmProjects/tensorflow/markedFrames/carpet/frame0271.jpg"
        string_val: "/Users/jlim2/PycharmProjects/tensorflow/markedFrames/carpet/frame0272.jpg"
        string_val: "/Users/jlim2/PycharmProjects/tensorflow/markedFrames/carpet/frame0273.jpg"
        string_val: "/Users/jlim2/PycharmProjects/tensorflow/markedFrames/carpet/frame0274.jpg"
        string_val: "/Users/jlim2/PycharmProjects/tensorflow/markedFrames/carpet/frame0275.jpg"
        string_val: "/Users/jlim2/PycharmProjects/tensorflow/markedFrames/carpet/frame0276.jpg"
        string_val: "/Users/jlim2/PycharmProjects/tensorflow/markedFrames/carpet/frame0277.jpg"
        string_val: "/Users/jlim2/PycharmProjects/tensorflow/markedFrames/carpet/frame0278.jpg"
        string_val: "/Users/jlim2/PycharmProjects/tensorflow/markedFrames/carpet/frame0279.jpg"
        string_val: "/Users/jlim2/PycharmProjects/tensorflow/markedFrames/carpet/frame0280.jpg"
        string_val: "/Users/jlim2/PycharmProjects/tensorflow/markedFrames/carpet/frame0281.jpg"
        string_val: "/Users/jlim2/PycharmProjects/tensorflow/markedFrames/carpet/frame0282.jpg"
        string_val: "/Users/jlim2/PycharmProjects/tensorflow/markedFrames/carpet/frame0283.jpg"
        string_val: "/Users/jlim2/PycharmProjects/tensorflow/markedFrames/carpet/frame0284.jpg"
        string_val: "/Users/jlim2/PycharmProjects/tensorflow/markedFrames/carpet/frame0285.jpg"
        string_val: "/Users/jlim2/PycharmProjects/tensorflow/markedFrames/carpet/frame0286.jpg"
        string_val: "/Users/jlim2/PycharmProjects/tensorflow/markedFrames/carpet/frame0287.jpg"
        string_val: "/Users/jlim2/PycharmProjects/tensorflow/markedFrames/carpet/frame0288.jpg"
        string_val: "/Users/jlim2/PycharmProjects/tensorflow/markedFrames/carpet/frame0289.jpg"
        string_val: "/Users/jlim2/PycharmProjects/tensorflow/markedFrames/carpet/frame0290.jpg"
        string_val: "/Users/jlim2/PycharmProjects/tensorflow/markedFrames/carpet/frame0291.jpg"
        string_val: "/Users/jlim2/PycharmProjects/tensorflow/markedFrames/carpet/frame0292.jpg"
        string_val: "/Users/jlim2/PycharmProjects/tensorflow/markedFrames/carpet/frame0293.jpg"
        string_val: "/Users/jlim2/PycharmProjects/tensorflow/markedFrames/carpet/frame0294.jpg"
        string_val: "/Users/jlim2/PycharmProjects/tensorflow/markedFrames/carpet/frame0295.jpg"
        string_val: "/Users/jlim2/PycharmProjects/tensorflow/markedFrames/carpet/frame0296.jpg"
        string_val: "/Users/jlim2/PycharmProjects/tensorflow/markedFrames/carpet/frame0297.jpg"
        string_val: "/Users/jlim2/PycharmProjects/tensorflow/markedFrames/carpet/frame0298.jpg"
        string_val: "/Users/jlim2/PycharmProjects/tensorflow/markedFrames/carpet/frame0299.jpg"
        string_val: "/Users/jlim2/PycharmProjects/tensorflow/markedFrames/carpet/frame0300.jpg"
        string_val: "/Users/jlim2/PycharmProjects/tensorflow/markedFrames/carpet/frame0301.jpg"
        string_val: "/Users/jlim2/PycharmProjects/tensorflow/markedFrames/carpet/frame0302.jpg"
        string_val: "/Users/jlim2/PycharmProjects/tensorflow/markedFrames/carpet/frame0303.jpg"
        string_val: "/Users/jlim2/PycharmProjects/tensorflow/markedFrames/carpet/frame0304.jpg"
        string_val: "/Users/jlim2/PycharmProjects/tensorflow/markedFrames/carpet/frame0305.jpg"
        string_val: "/Users/jlim2/PycharmProjects/tensorflow/markedFrames/carpet/frame0306.jpg"
        string_val: "/Users/jlim2/PycharmProjects/tensorflow/markedFrames/carpet/frame0307.jpg"
        string_val: "/Users/jlim2/PycharmProjects/tensorflow/markedFrames/carpet/frame0308.jpg"
        string_val: "/Users/jlim2/PycharmProjects/tensorflow/markedFrames/carpet/frame0309.jpg"
        string_val: "/Users/jlim2/PycharmProjects/tensorflow/markedFrames/carpet/frame0310.jpg"
        string_val: "/Users/jlim2/PycharmProjects/tensorflow/markedFrames/carpet/frame0311.jpg"
        string_val: "/Users/jlim2/PycharmProjects/tensorflow/markedFrames/carpet/frame0312.jpg"
        string_val: "/Users/jlim2/PycharmProjects/tensorflow/markedFrames/carpet/frame0313.jpg"
        string_val: "/Users/jlim2/PycharmProjects/tensorflow/markedFrames/carpet/frame0314.jpg"
        string_val: "/Users/jlim2/PycharmProjects/tensorflow/markedFrames/carpet/frame0315.jpg"
        string_val: "/Users/jlim2/PycharmProjects/tensorflow/markedFrames/carpet/frame0316.jpg"
        string_val: "/Users/jlim2/PycharmProjects/tensorflow/markedFrames/carpet/frame0317.jpg"
        string_val: "/Users/jlim2/PycharmProjects/tensorflow/markedFrames/carpet/frame0318.jpg"
        string_val: "/Users/jlim2/PycharmProjects/tensorflow/markedFrames/carpet/frame0319.jpg"
        string_val: "/Users/jlim2/PycharmProjects/tensorflow/markedFrames/carpet/frame0320.jpg"
        string_val: "/Users/jlim2/PycharmProjects/tensorflow/markedFrames/carpet/frame0321.jpg"
        string_val: "/Users/jlim2/PycharmProjects/tensorflow/markedFrames/carpet/frame0322.jpg"
        string_val: "/Users/jlim2/PycharmProjects/tensorflow/markedFrames/carpet/frame0323.jpg"
        string_val: "/Users/jlim2/PycharmProjects/tensorflow/markedFrames/carpet/frame0324.jpg"
        string_val: "/Users/jlim2/PycharmProjects/tensorflow/markedFrames/carpet/frame0325.jpg"
        string_val: "/Users/jlim2/PycharmProjects/tensorflow/markedFrames/carpet/frame0326.jpg"
        string_val: "/Users/jlim2/PycharmProjects/tensorflow/markedFrames/carpet/frame0327.jpg"
        string_val: "/Users/jlim2/PycharmProjects/tensorflow/markedFrames/carpet/frame0328.jpg"
        string_val: "/Users/jlim2/PycharmProjects/tensorflow/markedFrames/carpet/frame0329.jpg"
        string_val: "/Users/jlim2/PycharmProjects/tensorflow/markedFrames/carpet/frame0330.jpg"
        string_val: "/Users/jlim2/PycharmProjects/tensorflow/markedFrames/carpet/frame0331.jpg"
        string_val: "/Users/jlim2/PycharmProjects/tensorflow/markedFrames/carpet/frame0332.jpg"
        string_val: "/Users/jlim2/PycharmProjects/tensorflow/markedFrames/carpet/frame0333.jpg"
        string_val: "/Users/jlim2/PycharmProjects/tensorflow/markedFrames/carpet/frame0334.jpg"
        string_val: "/Users/jlim2/PycharmProjects/tensorflow/markedFrames/carpet/frame0335.jpg"
        string_val: "/Users/jlim2/PycharmProjects/tensorflow/markedFrames/carpet/frame0336.jpg"
        string_val: "/Users/jlim2/PycharmProjects/tensorflow/markedFrames/carpet/frame0337.jpg"
        string_val: "/Users/jlim2/PycharmProjects/tensorflow/markedFrames/carpet/frame0338.jpg"
        string_val: "/Users/jlim2/PycharmProjects/tensorflow/markedFrames/carpet/frame0339.jpg"
        string_val: "/Users/jlim2/PycharmProjects/tensorflow/markedFrames/carpet/frame0340.jpg"
        string_val: "/Users/jlim2/PycharmProjects/tensorflow/markedFrames/carpet/frame0341.jpg"
        string_val: "/Users/jlim2/PycharmProjects/tensorflow/markedFrames/carpet/frame0342.jpg"
        string_val: "/Users/jlim2/PycharmProjects/tensorflow/markedFrames/carpet/frame0343.jpg"
        string_val: "/Users/jlim2/PycharmProjects/tensorflow/markedFrames/carpet/frame0344.jpg"
        string_val: "/Users/jlim2/PycharmProjects/tensorflow/markedFrames/carpet/frame0345.jpg"
        string_val: "/Users/jlim2/PycharmProjects/tensorflow/markedFrames/carpet/frame0346.jpg"
        string_val: "/Users/jlim2/PycharmProjects/tensorflow/markedFrames/carpet/frame0347.jpg"
        string_val: "/Users/jlim2/PycharmProjects/tensorflow/markedFrames/carpet/frame0348.jpg"
        string_val: "/Users/jlim2/PycharmProjects/tensorflow/markedFrames/carpet/frame0349.jpg"
        string_val: "/Users/jlim2/PycharmProjects/tensorflow/markedFrames/carpet/frame0350.jpg"
        string_val: "/Users/jlim2/PycharmProjects/tensorflow/markedFrames/carpet/frame0351.jpg"
        string_val: "/Users/jlim2/PycharmProjects/tensorflow/markedFrames/carpet/frame0352.jpg"
        string_val: "/Users/jlim2/PycharmProjects/tensorflow/markedFrames/carpet/frame0353.jpg"
        string_val: "/Users/jlim2/PycharmProjects/tensorflow/markedFrames/carpet/frame0354.jpg"
        string_val: "/Users/jlim2/PycharmProjects/tensorflow/markedFrames/carpet/frame0355.jpg"
        string_val: "/Users/jlim2/PycharmProjects/tensorflow/markedFrames/carpet/frame0356.jpg"
        string_val: "/Users/jlim2/PycharmProjects/tensorflow/markedFrames/carpet/frame0357.jpg"
        string_val: "/Users/jlim2/PycharmProjects/tensorflow/markedFrames/carpet/frame0358.jpg"
        string_val: "/Users/jlim2/PycharmProjects/tensorflow/markedFrames/carpet/frame0359.jpg"
        string_val: "/Users/jlim2/PycharmProjects/tensorflow/markedFrames/carpet/frame0360.jpg"
        string_val: "/Users/jlim2/PycharmProjects/tensorflow/markedFrames/carpet/frame0361.jpg"
        string_val: "/Users/jlim2/PycharmProjects/tensorflow/markedFrames/carpet/frame0362.jpg"
        string_val: "/Users/jlim2/PycharmProjects/tensorflow/markedFrames/carpet/frame0363.jpg"
        string_val: "/Users/jlim2/PycharmProjects/tensorflow/markedFrames/carpet/frame0364.jpg"
        string_val: "/Users/jlim2/PycharmProjects/tensorflow/markedFrames/carpet/frame0365.jpg"
        string_val: "/Users/jlim2/PycharmProjects/tensorflow/markedFrames/carpet/frame0366.jpg"
        string_val: "/Users/jlim2/PycharmProjects/tensorflow/markedFrames/carpet/frame0367.jpg"
        string_val: "/Users/jlim2/PycharmProjects/tensorflow/markedFrames/carpet/frame0368.jpg"
        string_val: "/Users/jlim2/PycharmProjects/tensorflow/markedFrames/carpet/frame0369.jpg"
        string_val: "/Users/jlim2/PycharmProjects/tensorflow/markedFrames/carpet/frame0370.jpg"
        string_val: "/Users/jlim2/PycharmProjects/tensorflow/markedFrames/carpet/frame0371.jpg"
        string_val: "/Users/jlim2/PycharmProjects/tensorflow/markedFrames/carpet/frame0372.jpg"
        string_val: "/Users/jlim2/PycharmProjects/tensorflow/markedFrames/carpet/frame0373.jpg"
        string_val: "/Users/jlim2/PycharmProjects/tensorflow/markedFrames/carpet/frame0374.jpg"
        string_val: "/Users/jlim2/PycharmProjects/tensorflow/markedFrames/carpet/frame0375.jpg"
        string_val: "/Users/jlim2/PycharmProjects/tensorflow/markedFrames/carpet/frame0376.jpg"
        string_val: "/Users/jlim2/PycharmProjects/tensorflow/markedFrames/carpet/frame0377.jpg"
        string_val: "/Users/jlim2/PycharmProjects/tensorflow/markedFrames/carpet/frame0378.jpg"
        string_val: "/Users/jlim2/PycharmProjects/tensorflow/markedFrames/carpet/frame0379.jpg"
        string_val: "/Users/jlim2/PycharmProjects/tensorflow/markedFrames/carpet/frame0380.jpg"
        string_val: "/Users/jlim2/PycharmProjects/tensorflow/markedFrames/carpet/frame0381.jpg"
        string_val: "/Users/jlim2/PycharmProjects/tensorflow/markedFrames/carpet/frame0382.jpg"
        string_val: "/Users/jlim2/PycharmProjects/tensorflow/markedFrames/carpet/frame0383.jpg"
        string_val: "/Users/jlim2/PycharmProjects/tensorflow/markedFrames/carpet/frame0384.jpg"
        string_val: "/Users/jlim2/PycharmProjects/tensorflow/markedFrames/carpet/frame0385.jpg"
        string_val: "/Users/jlim2/PycharmProjects/tensorflow/markedFrames/carpet/frame0386.jpg"
        string_val: "/Users/jlim2/PycharmProjects/tensorflow/markedFrames/carpet/frame0387.jpg"
        string_val: "/Users/jlim2/PycharmProjects/tensorflow/markedFrames/carpet/frame0388.jpg"
        string_val: "/Users/jlim2/PycharmProjects/tensorflow/markedFrames/carpet/frame0389.jpg"
        string_val: "/Users/jlim2/PycharmProjects/tensorflow/markedFrames/carpet/frame0390.jpg"
        string_val: "/Users/jlim2/PycharmProjects/tensorflow/markedFrames/carpet/frame0391.jpg"
        string_val: "/Users/jlim2/PycharmProjects/tensorflow/markedFrames/carpet/frame0392.jpg"
        string_val: "/Users/jlim2/PycharmProjects/tensorflow/markedFrames/carpet/frame0393.jpg"
        string_val: "/Users/jlim2/PycharmProjects/tensorflow/markedFrames/carpet/frame0394.jpg"
        string_val: "/Users/jlim2/PycharmProjects/tensorflow/markedFrames/carpet/frame0395.jpg"
        string_val: "/Users/jlim2/PycharmProjects/tensorflow/markedFrames/carpet/frame0396.jpg"
        string_val: "/Users/jlim2/PycharmProjects/tensorflow/markedFrames/carpet/frame0397.jpg"
        string_val: "/Users/jlim2/PycharmProjects/tensorflow/markedFrames/carpet/frame0398.jpg"
        string_val: "/Users/jlim2/PycharmProjects/tensorflow/markedFrames/carpet/frame0399.jpg"
        string_val: "/Users/jlim2/PycharmProjects/tensorflow/markedFrames/carpet/frame0400.jpg"
        string_val: "/Users/jlim2/PycharmProjects/tensorflow/markedFrames/carpet/frame0401.jpg"
        string_val: "/Users/jlim2/PycharmProjects/tensorflow/markedFrames/carpet/frame0402.jpg"
        string_val: "/Users/jlim2/PycharmProjects/tensorflow/markedFrames/carpet/frame0403.jpg"
        string_val: "/Users/jlim2/PycharmProjects/tensorflow/markedFrames/carpet/frame0404.jpg"
        string_val: "/Users/jlim2/PycharmProjects/tensorflow/markedFrames/carpet/frame0405.jpg"
        string_val: "/Users/jlim2/PycharmProjects/tensorflow/markedFrames/carpet/frame0406.jpg"
        string_val: "/Users/jlim2/PycharmProjects/tensorflow/markedFrames/carpet/frame0407.jpg"
        string_val: "/Users/jlim2/PycharmProjects/tensorflow/markedFrames/carpet/frame0408.jpg"
        string_val: "/Users/jlim2/PycharmProjects/tensorflow/markedFrames/carpet/frame0409.jpg"
        string_val: "/Users/jlim2/PycharmProjects/tensorflow/markedFrames/carpet/frame0410.jpg"
        string_val: "/Users/jlim2/PycharmProjects/tensorflow/markedFrames/carpet/frame0411.jpg"
        string_val: "/Users/jlim2/PycharmProjects/tensorflow/markedFrames/carpet/frame0412.jpg"
        string_val: "/Users/jlim2/PycharmProjects/tensorflow/markedFrames/carpet/frame0413.jpg"
        string_val: "/Users/jlim2/PycharmProjects/tensorflow/markedFrames/carpet/frame0414.jpg"
        string_val: "/Users/jlim2/PycharmProjects/tensorflow/markedFrames/carpet/frame0415.jpg"
        string_val: "/Users/jlim2/PycharmProjects/tensorflow/markedFrames/carpet/frame0416.jpg"
        string_val: "/Users/jlim2/PycharmProjects/tensorflow/markedFrames/carpet/frame0417.jpg"
        string_val: "/Users/jlim2/PycharmProjects/tensorflow/markedFrames/carpet/frame0418.jpg"
        string_val: "/Users/jlim2/PycharmProjects/tensorflow/markedFrames/carpet/frame0419.jpg"
        string_val: "/Users/jlim2/PycharmProjects/tensorflow/markedFrames/carpet/frame0420.jpg"
        string_val: "/Users/jlim2/PycharmProjects/tensorflow/markedFrames/carpet/frame0421.jpg"
        string_val: "/Users/jlim2/PycharmProjects/tensorflow/markedFrames/carpet/frame0422.jpg"
        string_val: "/Users/jlim2/PycharmProjects/tensorflow/markedFrames/carpet/frame0423.jpg"
        string_val: "/Users/jlim2/PycharmProjects/tensorflow/markedFrames/carpet/frame0424.jpg"
        string_val: "/Users/jlim2/PycharmProjects/tensorflow/markedFrames/carpet/frame0425.jpg"
        string_val: "/Users/jlim2/PycharmProjects/tensorflow/markedFrames/carpet/frame0426.jpg"
        string_val: "/Users/jlim2/PycharmProjects/tensorflow/markedFrames/carpet/frame0427.jpg"
        string_val: "/Users/jlim2/PycharmProjects/tensorflow/markedFrames/carpet/frame0428.jpg"
        string_val: "/Users/jlim2/PycharmProjects/tensorflow/markedFrames/carpet/frame0429.jpg"
        string_val: "/Users/jlim2/PycharmProjects/tensorflow/markedFrames/carpet/frame0430.jpg"
        string_val: "/Users/jlim2/PycharmProjects/tensorflow/markedFrames/carpet/frame0431.jpg"
        string_val: "/Users/jlim2/PycharmProjects/tensorflow/markedFrames/carpet/frame0432.jpg"
        string_val: "/Users/jlim2/PycharmProjects/tensorflow/markedFrames/carpet/frame0433.jpg"
        string_val: "/Users/jlim2/PycharmProjects/tensorflow/markedFrames/carpet/frame0434.jpg"
        string_val: "/Users/jlim2/PycharmProjects/tensorflow/markedFrames/carpet/frame0435.jpg"
        string_val: "/Users/jlim2/PycharmProjects/tensorflow/markedFrames/carpet/frame0436.jpg"
        string_val: "/Users/jlim2/PycharmProjects/tensorflow/markedFrames/carpet/frame0437.jpg"
        string_val: "/Users/jlim2/PycharmProjects/tensorflow/markedFrames/carpet/frame0438.jpg"
        string_val: "/Users/jlim2/PycharmProjects/tensorflow/markedFrames/carpet/frame0439.jpg"
        string_val: "/Users/jlim2/PycharmProjects/tensorflow/markedFrames/carpet/frame0440.jpg"
        string_val: "/Users/jlim2/PycharmProjects/tensorflow/markedFrames/carpet/frame0441.jpg"
        string_val: "/Users/jlim2/PycharmProjects/tensorflow/markedFrames/carpet/frame0442.jpg"
        string_val: "/Users/jlim2/PycharmProjects/tensorflow/markedFrames/carpet/frame0443.jpg"
        string_val: "/Users/jlim2/PycharmProjects/tensorflow/markedFrames/carpet/frame0444.jpg"
        string_val: "/Users/jlim2/PycharmProjects/tensorflow/markedFrames/carpet/frame0445.jpg"
        string_val: "/Users/jlim2/PycharmProjects/tensorflow/markedFrames/carpet/frame0446.jpg"
        string_val: "/Users/jlim2/PycharmProjects/tensorflow/markedFrames/carpet/frame0447.jpg"
        string_val: "/Users/jlim2/PycharmProjects/tensorflow/markedFrames/carpet/frame0448.jpg"
        string_val: "/Users/jlim2/PycharmProjects/tensorflow/markedFrames/carpet/frame0449.jpg"
        string_val: "/Users/jlim2/PycharmProjects/tensorflow/markedFrames/carpet/frame0450.jpg"
        string_val: "/Users/jlim2/PycharmProjects/tensorflow/markedFrames/carpet/frame0451.jpg"
        string_val: "/Users/jlim2/PycharmProjects/tensorflow/markedFrames/carpet/frame0452.jpg"
        string_val: "/Users/jlim2/PycharmProjects/tensorflow/markedFrames/carpet/frame0453.jpg"
        string_val: "/Users/jlim2/PycharmProjects/tensorflow/markedFrames/carpet/frame0454.jpg"
        string_val: "/Users/jlim2/PycharmProjects/tensorflow/markedFrames/carpet/frame0455.jpg"
        string_val: "/Users/jlim2/PycharmProjects/tensorflow/markedFrames/carpet/frame0456.jpg"
        string_val: "/Users/jlim2/PycharmProjects/tensorflow/markedFrames/carpet/frame0457.jpg"
        string_val: "/Users/jlim2/PycharmProjects/tensorflow/markedFrames/carpet/frame0458.jpg"
        string_val: "/Users/jlim2/PycharmProjects/tensorflow/markedFrames/carpet/frame0459.jpg"
        string_val: "/Users/jlim2/PycharmProjects/tensorflow/markedFrames/carpet/frame0460.jpg"
        string_val: "/Users/jlim2/PycharmProjects/tensorflow/markedFrames/carpet/frame0461.jpg"
        string_val: "/Users/jlim2/PycharmProjects/tensorflow/markedFrames/carpet/frame0462.jpg"
        string_val: "/Users/jlim2/PycharmProjects/tensorflow/markedFrames/carpet/frame0463.jpg"
        string_val: "/Users/jlim2/PycharmProjects/tensorflow/markedFrames/carpet/frame0464.jpg"
        string_val: "/Users/jlim2/PycharmProjects/tensorflow/markedFrames/carpet/frame0465.jpg"
        string_val: "/Users/jlim2/PycharmProjects/tensorflow/markedFrames/carpet/frame0466.jpg"
        string_val: "/Users/jlim2/PycharmProjects/tensorflow/markedFrames/carpet/frame0467.jpg"
        string_val: "/Users/jlim2/PycharmProjects/tensorflow/markedFrames/carpet/frame0468.jpg"
        string_val: "/Users/jlim2/PycharmProjects/tensorflow/markedFrames/carpet/frame0469.jpg"
        string_val: "/Users/jlim2/PycharmProjects/tensorflow/markedFrames/carpet/frame0470.jpg"
        string_val: "/Users/jlim2/PycharmProjects/tensorflow/markedFrames/carpet/frame0471.jpg"
        string_val: "/Users/jlim2/PycharmProjects/tensorflow/markedFrames/carpet/frame0472.jpg"
        string_val: "/Users/jlim2/PycharmProjects/tensorflow/markedFrames/carpet/frame0473.jpg"
        string_val: "/Users/jlim2/PycharmProjects/tensorflow/markedFrames/carpet/frame0474.jpg"
        string_val: "/Users/jlim2/PycharmProjects/tensorflow/markedFrames/carpet/frame0475.jpg"
        string_val: "/Users/jlim2/PycharmProjects/tensorflow/markedFrames/carpet/frame0476.jpg"
        string_val: "/Users/jlim2/PycharmProjects/tensorflow/markedFrames/carpet/frame0477.jpg"
        string_val: "/Users/jlim2/PycharmProjects/tensorflow/markedFrames/carpet/frame0478.jpg"
        string_val: "/Users/jlim2/PycharmProjects/tensorflow/markedFrames/carpet/frame0479.jpg"
        string_val: "/Users/jlim2/PycharmProjects/tensorflow/markedFrames/carpet/frame0480.jpg"
        string_val: "/Users/jlim2/PycharmProjects/tensorflow/markedFrames/carpet/frame0481.jpg"
        string_val: "/Users/jlim2/PycharmProjects/tensorflow/markedFrames/carpet/frame0482.jpg"
        string_val: "/Users/jlim2/PycharmProjects/tensorflow/markedFrames/carpet/frame0483.jpg"
        string_val: "/Users/jlim2/PycharmProjects/tensorflow/markedFrames/carpet/frame0484.jpg"
        string_val: "/Users/jlim2/PycharmProjects/tensorflow/markedFrames/carpet/frame0485.jpg"
        string_val: "/Users/jlim2/PycharmProjects/tensorflow/markedFrames/carpet/frame0486.jpg"
        string_val: "/Users/jlim2/PycharmProjects/tensorflow/markedFrames/carpet/frame0487.jpg"
        string_val: "/Users/jlim2/PycharmProjects/tensorflow/markedFrames/carpet/frame0488.jpg"
        string_val: "/Users/jlim2/PycharmProjects/tensorflow/markedFrames/carpet/frame0489.jpg"
        string_val: "/Users/jlim2/PycharmProjects/tensorflow/markedFrames/carpet/frame0490.jpg"
        string_val: "/Users/jlim2/PycharmProjects/tensorflow/markedFrames/carpet/frame0491.jpg"
        string_val: "/Users/jlim2/PycharmProjects/tensorflow/markedFrames/carpet/frame0492.jpg"
        string_val: "/Users/jlim2/PycharmProjects/tensorflow/markedFrames/carpet/frame0493.jpg"
        string_val: "/Users/jlim2/PycharmProjects/tensorflow/markedFrames/carpet/frame0494.jpg"
        string_val: "/Users/jlim2/PycharmProjects/tensorflow/markedFrames/carpet/frame0495.jpg"
        string_val: "/Users/jlim2/PycharmProjects/tensorflow/markedFrames/carpet/frame0496.jpg"
        string_val: "/Users/jlim2/PycharmProjects/tensorflow/markedFrames/carpet/frame0497.jpg"
        string_val: "/Users/jlim2/PycharmProjects/tensorflow/markedFrames/carpet/frame0498.jpg"
        string_val: "/Users/jlim2/PycharmProjects/tensorflow/markedFrames/carpet/frame0499.jpg"
        string_val: "/Users/jlim2/PycharmProjects/tensorflow/markedFrames/carpet/frame0500.jpg"
        string_val: "/Users/jlim2/PycharmProjects/tensorflow/markedFrames/carpet/frame0501.jpg"
        string_val: "/Users/jlim2/PycharmProjects/tensorflow/markedFrames/carpet/frame0502.jpg"
        string_val: "/Users/jlim2/PycharmProjects/tensorflow/markedFrames/carpet/frame0503.jpg"
        string_val: "/Users/jlim2/PycharmProjects/tensorflow/markedFrames/carpet/frame0504.jpg"
        string_val: "/Users/jlim2/PycharmProjects/tensorflow/markedFrames/carpet/frame0505.jpg"
        string_val: "/Users/jlim2/PycharmProjects/tensorflow/markedFrames/carpet/frame0506.jpg"
        string_val: "/Users/jlim2/PycharmProjects/tensorflow/markedFrames/carpet/frame0507.jpg"
        string_val: "/Users/jlim2/PycharmProjects/tensorflow/markedFrames/carpet/frame0508.jpg"
        string_val: "/Users/jlim2/PycharmProjects/tensorflow/markedFrames/carpet/frame0509.jpg"
        string_val: "/Users/jlim2/PycharmProjects/tensorflow/markedFrames/carpet/frame0510.jpg"
        string_val: "/Users/jlim2/PycharmProjects/tensorflow/markedFrames/carpet/frame0511.jpg"
        string_val: "/Users/jlim2/PycharmProjects/tensorflow/markedFrames/carpet/frame0512.jpg"
        string_val: "/Users/jlim2/PycharmProjects/tensorflow/markedFrames/carpet/frame0513.jpg"
        string_val: "/Users/jlim2/PycharmProjects/tensorflow/markedFrames/carpet/frame0514.jpg"
        string_val: "/Users/jlim2/PycharmProjects/tensorflow/markedFrames/carpet/frame0515.jpg"
        string_val: "/Users/jlim2/PycharmProjects/tensorflow/markedFrames/carpet/frame0516.jpg"
        string_val: "/Users/jlim2/PycharmProjects/tensorflow/markedFrames/carpet/frame0517.jpg"
        string_val: "/Users/jlim2/PycharmProjects/tensorflow/markedFrames/carpet/frame0518.jpg"
        string_val: "/Users/jlim2/PycharmProjects/tensorflow/markedFrames/carpet/frame0519.jpg"
        string_val: "/Users/jlim2/PycharmProjects/tensorflow/markedFrames/carpet/frame0520.jpg"
        string_val: "/Users/jlim2/PycharmProjects/tensorflow/markedFrames/carpet/frame0521.jpg"
        string_val: "/Users/jlim2/PycharmProjects/tensorflow/markedFrames/carpet/frame0522.jpg"
        string_val: "/Users/jlim2/PycharmProjects/tensorflow/markedFrames/carpet/frame0523.jpg"
        string_val: "/Users/jlim2/PycharmProjects/tensorflow/markedFrames/carpet/frame0524.jpg"
        string_val: "/Users/jlim2/PycharmProjects/tensorflow/markedFrames/carpet/frame0525.jpg"
        string_val: "/Users/jlim2/PycharmProjects/tensorflow/markedFrames/carpet/frame0526.jpg"
        string_val: "/Users/jlim2/PycharmProjects/tensorflow/markedFrames/carpet/frame0527.jpg"
        string_val: "/Users/jlim2/PycharmProjects/tensorflow/markedFrames/carpet/frame0528.jpg"
        string_val: "/Users/jlim2/PycharmProjects/tensorflow/markedFrames/carpet/frame0529.jpg"
        string_val: "/Users/jlim2/PycharmProjects/tensorflow/markedFrames/carpet/frame0530.jpg"
        string_val: "/Users/jlim2/PycharmProjects/tensorflow/markedFrames/carpet/frame0531.jpg"
        string_val: "/Users/jlim2/PycharmProjects/tensorflow/markedFrames/carpet/frame0532.jpg"
        string_val: "/Users/jlim2/PycharmProjects/tensorflow/markedFrames/carpet/frame0533.jpg"
        string_val: "/Users/jlim2/PycharmProjects/tensorflow/markedFrames/carpet/frame0534.jpg"
        string_val: "/Users/jlim2/PycharmProjects/tensorflow/markedFrames/carpet/frame0535.jpg"
        string_val: "/Users/jlim2/PycharmProjects/tensorflow/markedFrames/carpet/frame0536.jpg"
        string_val: "/Users/jlim2/PycharmProjects/tensorflow/markedFrames/carpet/frame0537.jpg"
        string_val: "/Users/jlim2/PycharmProjects/tensorflow/markedFrames/carpet/frame0538.jpg"
        string_val: "/Users/jlim2/PycharmProjects/tensorflow/markedFrames/carpet/frame0539.jpg"
        string_val: "/Users/jlim2/PycharmProjects/tensorflow/markedFrames/carpet/frame0540.jpg"
        string_val: "/Users/jlim2/PycharmProjects/tensorflow/markedFrames/carpet/frame0541.jpg"
        string_val: "/Users/jlim2/PycharmProjects/tensorflow/markedFrames/carpet/frame0542.jpg"
        string_val: "/Users/jlim2/PycharmProjects/tensorflow/markedFrames/carpet/frame0543.jpg"
        string_val: "/Users/jlim2/PycharmProjects/tensorflow/markedFrames/carpet/frame0544.jpg"
        string_val: "/Users/jlim2/PycharmProjects/tensorflow/markedFrames/carpet/frame0545.jpg"
        string_val: "/Users/jlim2/PycharmProjects/tensorflow/markedFrames/carpet/frame0546.jpg"
        string_val: "/Users/jlim2/PycharmProjects/tensorflow/markedFrames/carpet/frame0547.jpg"
        string_val: "/Users/jlim2/PycharmProjects/tensorflow/markedFrames/carpet/frame0548.jpg"
        string_val: "/Users/jlim2/PycharmProjects/tensorflow/markedFrames/carpet/frame0560.jpg"
        string_val: "/Users/jlim2/PycharmProjects/tensorflow/markedFrames/carpet/frame0561.jpg"
        string_val: "/Users/jlim2/PycharmProjects/tensorflow/markedFrames/carpet/frame0562.jpg"
        string_val: "/Users/jlim2/PycharmProjects/tensorflow/markedFrames/carpet/frame0563.jpg"
        string_val: "/Users/jlim2/PycharmProjects/tensorflow/markedFrames/carpet/frame0564.jpg"
        string_val: "/Users/jlim2/PycharmProjects/tensorflow/markedFrames/carpet/frame0565.jpg"
        string_val: "/Users/jlim2/PycharmProjects/tensorflow/markedFrames/carpet/frame0566.jpg"
        string_val: "/Users/jlim2/PycharmProjects/tensorflow/markedFrames/carpet/frame0567.jpg"
        string_val: "/Users/jlim2/PycharmProjects/tensorflow/markedFrames/carpet/frame0568.jpg"
        string_val: "/Users/jlim2/PycharmProjects/tensorflow/markedFrames/carpet/frame0569.jpg"
        string_val: "/Users/jlim2/PycharmProjects/tensorflow/markedFrames/carpet/frame0570.jpg"
        string_val: "/Users/jlim2/PycharmProjects/tensorflow/markedFrames/carpet/frame0571.jpg"
        string_val: "/Users/jlim2/PycharmProjects/tensorflow/markedFrames/carpet/frame0572.jpg"
        string_val: "/Users/jlim2/PycharmProjects/tensorflow/markedFrames/carpet/frame0573.jpg"
        string_val: "/Users/jlim2/PycharmProjects/tensorflow/markedFrames/carpet/frame0574.jpg"
        string_val: "/Users/jlim2/PycharmProjects/tensorflow/markedFrames/carpet/frame0575.jpg"
        string_val: "/Users/jlim2/PycharmProjects/tensorflow/markedFrames/carpet/frame0576.jpg"
        string_val: "/Users/jlim2/PycharmProjects/tensorflow/markedFrames/carpet/frame0577.jpg"
        string_val: "/Users/jlim2/PycharmProjects/tensorflow/markedFrames/carpet/frame0578.jpg"
        string_val: "/Users/jlim2/PycharmProjects/tensorflow/markedFrames/carpet/frame0579.jpg"
        string_val: "/Users/jlim2/PycharmProjects/tensorflow/markedFrames/carpet/frame0580.jpg"
        string_val: "/Users/jlim2/PycharmProjects/tensorflow/markedFrames/carpet/frame0581.jpg"
        string_val: "/Users/jlim2/PycharmProjects/tensorflow/markedFrames/carpet/frame0582.jpg"
        string_val: "/Users/jlim2/PycharmProjects/tensorflow/markedFrames/carpet/frame0583.jpg"
        string_val: "/Users/jlim2/PycharmProjects/tensorflow/markedFrames/carpet/frame0584.jpg"
        string_val: "/Users/jlim2/PycharmProjects/tensorflow/markedFrames/carpet/frame0585.jpg"
        string_val: "/Users/jlim2/PycharmProjects/tensorflow/markedFrames/carpet/frame0586.jpg"
        string_val: "/Users/jlim2/PycharmProjects/tensorflow/markedFrames/carpet/frame0587.jpg"
        string_val: "/Users/jlim2/PycharmProjects/tensorflow/markedFrames/carpet/frame0588.jpg"
        string_val: "/Users/jlim2/PycharmProjects/tensorflow/markedFrames/carpet/frame0589.jpg"
        string_val: "/Users/jlim2/PycharmProjects/tensorflow/markedFrames/carpet/frame0590.jpg"
        string_val: "/Users/jlim2/PycharmProjects/tensorflow/markedFrames/carpet/frame0591.jpg"
        string_val: "/Users/jlim2/PycharmProjects/tensorflow/markedFrames/tile/frame0003.jpg"
        string_val: "/Users/jlim2/PycharmProjects/tensorflow/markedFrames/tile/frame0004.jpg"
        string_val: "/Users/jlim2/PycharmProjects/tensorflow/markedFrames/tile/frame0005.jpg"
        string_val: "/Users/jlim2/PycharmProjects/tensorflow/markedFrames/tile/frame0006.jpg"
        string_val: "/Users/jlim2/PycharmProjects/tensorflow/markedFrames/tile/frame0007.jpg"
        string_val: "/Users/jlim2/PycharmProjects/tensorflow/markedFrames/tile/frame0008.jpg"
        string_val: "/Users/jlim2/PycharmProjects/tensorflow/markedFrames/tile/frame0009.jpg"
        string_val: "/Users/jlim2/PycharmProjects/tensorflow/markedFrames/tile/frame0010.jpg"
        string_val: "/Users/jlim2/PycharmProjects/tensorflow/markedFrames/tile/frame0011.jpg"
        string_val: "/Users/jlim2/PycharmProjects/tensorflow/markedFrames/tile/frame0012.jpg"
        string_val: "/Users/jlim2/PycharmProjects/tensorflow/markedFrames/tile/frame0013.jpg"
        string_val: "/Users/jlim2/PycharmProjects/tensorflow/markedFrames/tile/frame0014.jpg"
        string_val: "/Users/jlim2/PycharmProjects/tensorflow/markedFrames/tile/frame0015.jpg"
        string_val: "/Users/jlim2/PycharmProjects/tensorflow/markedFrames/tile/frame0016.jpg"
        string_val: "/Users/jlim2/PycharmProjects/tensorflow/markedFrames/tile/frame0017.jpg"
        string_val: "/Users/jlim2/PycharmProjects/tensorflow/markedFrames/tile/frame0018.jpg"
        string_val: "/Users/jlim2/PycharmProjects/tensorflow/markedFrames/tile/frame0019.jpg"
        string_val: "/Users/jlim2/PycharmProjects/tensorflow/markedFrames/tile/frame0020.jpg"
        string_val: "/Users/jlim2/PycharmProjects/tensorflow/markedFrames/tile/frame0021.jpg"
        string_val: "/Users/jlim2/PycharmProjects/tensorflow/markedFrames/tile/frame0022.jpg"
        string_val: "/Users/jlim2/PycharmProjects/tensorflow/markedFrames/tile/frame0023.jpg"
        string_val: "/Users/jlim2/PycharmProjects/tensorflow/markedFrames/tile/frame0024.jpg"
        string_val: "/Users/jlim2/PycharmProjects/tensorflow/markedFrames/tile/frame0025.jpg"
        string_val: "/Users/jlim2/PycharmProjects/tensorflow/markedFrames/tile/frame0026.jpg"
        string_val: "/Users/jlim2/PycharmProjects/tensorflow/markedFrames/tile/frame0027.jpg"
        string_val: "/Users/jlim2/PycharmProjects/tensorflow/markedFrames/tile/frame0028.jpg"
        string_val: "/Users/jlim2/PycharmProjects/tensorflow/markedFrames/tile/frame0029.jpg"
        string_val: "/Users/jlim2/PycharmProjects/tensorflow/markedFrames/tile/frame0030.jpg"
        string_val: "/Users/jlim2/PycharmProjects/tensorflow/markedFrames/tile/frame0031.jpg"
        string_val: "/Users/jlim2/PycharmProjects/tensorflow/markedFrames/tile/frame0032.jpg"
        string_val: "/Users/jlim2/PycharmProjects/tensorflow/markedFrames/tile/frame0033.jpg"
        string_val: "/Users/jlim2/PycharmProjects/tensorflow/markedFrames/tile/frame0034.jpg"
        string_val: "/Users/jlim2/PycharmProjects/tensorflow/markedFrames/tile/frame0035.jpg"
        string_val: "/Users/jlim2/PycharmProjects/tensorflow/markedFrames/tile/frame0036.jpg"
        string_val: "/Users/jlim2/PycharmProjects/tensorflow/markedFrames/tile/frame0037.jpg"
        string_val: "/Users/jlim2/PycharmProjects/tensorflow/markedFrames/tile/frame0038.jpg"
        string_val: "/Users/jlim2/PycharmProjects/tensorflow/markedFrames/tile/frame0039.jpg"
        string_val: "/Users/jlim2/PycharmProjects/tensorflow/markedFrames/tile/frame0040.jpg"
        string_val: "/Users/jlim2/PycharmProjects/tensorflow/markedFrames/tile/frame0041.jpg"
        string_val: "/Users/jlim2/PycharmProjects/tensorflow/markedFrames/tile/frame0042.jpg"
        string_val: "/Users/jlim2/PycharmProjects/tensorflow/markedFrames/tile/frame0043.jpg"
        string_val: "/Users/jlim2/PycharmProjects/tensorflow/markedFrames/tile/frame0044.jpg"
        string_val: "/Users/jlim2/PycharmProjects/tensorflow/markedFrames/tile/frame0045.jpg"
        string_val: "/Users/jlim2/PycharmProjects/tensorflow/markedFrames/tile/frame0046.jpg"
        string_val: "/Users/jlim2/PycharmProjects/tensorflow/markedFrames/tile/frame0047.jpg"
        string_val: "/Users/jlim2/PycharmProjects/tensorflow/markedFrames/tile/frame0048.jpg"
        string_val: "/Users/jlim2/PycharmProjects/tensorflow/markedFrames/tile/frame0049.jpg"
        string_val: "/Users/jlim2/PycharmProjects/tensorflow/markedFrames/tile/frame0050.jpg"
        string_val: "/Users/jlim2/PycharmProjects/tensorflow/markedFrames/tile/frame0051.jpg"
        string_val: "/Users/jlim2/PycharmProjects/tensorflow/markedFrames/tile/frame0052.jpg"
        string_val: "/Users/jlim2/PycharmProjects/tensorflow/markedFrames/tile/frame0053.jpg"
        string_val: "/Users/jlim2/PycharmProjects/tensorflow/markedFrames/tile/frame0054.jpg"
        string_val: "/Users/jlim2/PycharmProjects/tensorflow/markedFrames/tile/frame0055.jpg"
        string_val: "/Users/jlim2/PycharmProjects/tensorflow/markedFrames/tile/frame0056.jpg"
        string_val: "/Users/jlim2/PycharmProjects/tensorflow/markedFrames/tile/frame0057.jpg"
        string_val: "/Users/jlim2/PycharmProjects/tensorflow/markedFrames/tile/frame0058.jpg"
        string_val: "/Users/jlim2/PycharmProjects/tensorflow/markedFrames/tile/frame0059.jpg"
        string_val: "/Users/jlim2/PycharmProjects/tensorflow/markedFrames/tile/frame0060.jpg"
        string_val: "/Users/jlim2/PycharmProjects/tensorflow/markedFrames/tile/frame0061.jpg"
        string_val: "/Users/jlim2/PycharmProjects/tensorflow/markedFrames/tile/frame0062.jpg"
        string_val: "/Users/jlim2/PycharmProjects/tensorflow/markedFrames/tile/frame0063.jpg"
        string_val: "/Users/jlim2/PycharmProjects/tensorflow/markedFrames/tile/frame0064.jpg"
        string_val: "/Users/jlim2/PycharmProjects/tensorflow/markedFrames/tile/frame0065.jpg"
        string_val: "/Users/jlim2/PycharmProjects/tensorflow/markedFrames/tile/frame0066.jpg"
        string_val: "/Users/jlim2/PycharmProjects/tensorflow/markedFrames/tile/frame0067.jpg"
        string_val: "/Users/jlim2/PycharmProjects/tensorflow/markedFrames/tile/frame0068.jpg"
        string_val: "/Users/jlim2/PycharmProjects/tensorflow/markedFrames/tile/frame0069.jpg"
        string_val: "/Users/jlim2/PycharmProjects/tensorflow/markedFrames/tile/frame0070.jpg"
        string_val: "/Users/jlim2/PycharmProjects/tensorflow/markedFrames/tile/frame0071.jpg"
        string_val: "/Users/jlim2/PycharmProjects/tensorflow/markedFrames/tile/frame0072.jpg"
        string_val: "/Users/jlim2/PycharmProjects/tensorflow/markedFrames/tile/frame0073.jpg"
        string_val: "/Users/jlim2/PycharmProjects/tensorflow/markedFrames/tile/frame0074.jpg"
        string_val: "/Users/jlim2/PycharmProjects/tensorflow/markedFrames/tile/frame0075.jpg"
        string_val: "/Users/jlim2/PycharmProjects/tensorflow/markedFrames/tile/frame0076.jpg"
        string_val: "/Users/jlim2/PycharmProjects/tensorflow/markedFrames/tile/frame0077.jpg"
        string_val: "/Users/jlim2/PycharmProjects/tensorflow/markedFrames/tile/frame0078.jpg"
        string_val: "/Users/jlim2/PycharmProjects/tensorflow/markedFrames/tile/frame0079.jpg"
        string_val: "/Users/jlim2/PycharmProjects/tensorflow/markedFrames/tile/frame0080.jpg"
        string_val: "/Users/jlim2/PycharmProjects/tensorflow/markedFrames/tile/frame0081.jpg"
        string_val: "/Users/jlim2/PycharmProjects/tensorflow/markedFrames/tile/frame0082.jpg"
        string_val: "/Users/jlim2/PycharmProjects/tensorflow/markedFrames/tile/frame0083.jpg"
        string_val: "/Users/jlim2/PycharmProjects/tensorflow/markedFrames/tile/frame0084.jpg"
        string_val: "/Users/jlim2/PycharmProjects/tensorflow/markedFrames/tile/frame0085.jpg"
        string_val: "/Users/jlim2/PycharmProjects/tensorflow/markedFrames/tile/frame0086.jpg"
        string_val: "/Users/jlim2/PycharmProjects/tensorflow/markedFrames/tile/frame0087.jpg"
        string_val: "/Users/jlim2/PycharmProjects/tensorflow/markedFrames/tile/frame0088.jpg"
        string_val: "/Users/jlim2/PycharmProjects/tensorflow/markedFrames/tile/frame0089.jpg"
        string_val: "/Users/jlim2/PycharmProjects/tensorflow/markedFrames/tile/frame0090.jpg"
        string_val: "/Users/jlim2/PycharmProjects/tensorflow/markedFrames/tile/frame0091.jpg"
        string_val: "/Users/jlim2/PycharmProjects/tensorflow/markedFrames/tile/frame0092.jpg"
        string_val: "/Users/jlim2/PycharmProjects/tensorflow/markedFrames/tile/frame0093.jpg"
        string_val: "/Users/jlim2/PycharmProjects/tensorflow/markedFrames/tile/frame0094.jpg"
        string_val: "/Users/jlim2/PycharmProjects/tensorflow/markedFrames/tile/frame0095.jpg"
        string_val: "/Users/jlim2/PycharmProjects/tensorflow/markedFrames/tile/frame0096.jpg"
        string_val: "/Users/jlim2/PycharmProjects/tensorflow/markedFrames/tile/frame0097.jpg"
        string_val: "/Users/jlim2/PycharmProjects/tensorflow/markedFrames/tile/frame0098.jpg"
        string_val: "/Users/jlim2/PycharmProjects/tensorflow/markedFrames/tile/frame0099.jpg"
        string_val: "/Users/jlim2/PycharmProjects/tensorflow/markedFrames/tile/frame0100.jpg"
        string_val: "/Users/jlim2/PycharmProjects/tensorflow/markedFrames/tile/frame0101.jpg"
        string_val: "/Users/jlim2/PycharmProjects/tensorflow/markedFrames/tile/frame0102.jpg"
        string_val: "/Users/jlim2/PycharmProjects/tensorflow/markedFrames/tile/frame0103.jpg"
        string_val: "/Users/jlim2/PycharmProjects/tensorflow/markedFrames/tile/frame0104.jpg"
        string_val: "/Users/jlim2/PycharmProjects/tensorflow/markedFrames/tile/frame0105.jpg"
        string_val: "/Users/jlim2/PycharmProjects/tensorflow/markedFrames/tile/frame0600.jpg"
        string_val: "/Users/jlim2/PycharmProjects/tensorflow/markedFrames/tile/frame0601.jpg"
        string_val: "/Users/jlim2/PycharmProjects/tensorflow/markedFrames/tile/frame0602.jpg"
        string_val: "/Users/jlim2/PycharmProjects/tensorflow/markedFrames/tile/frame1365.jpg"
        string_val: "/Users/jlim2/PycharmProjects/tensorflow/markedFrames/tile/frame1366.jpg"
        string_val: "/Users/jlim2/PycharmProjects/tensorflow/markedFrames/tile/frame1367.jpg"
        string_val: "/Users/jlim2/PycharmProjects/tensorflow/markedFrames/tile/frame1368.jpg"
        string_val: "/Users/jlim2/PycharmProjects/tensorflow/markedFrames/tile/frame1369.jpg"
        string_val: "/Users/jlim2/PycharmProjects/tensorflow/markedFrames/tile/frame1370.jpg"
        string_val: "/Users/jlim2/PycharmProjects/tensorflow/markedFrames/tile/frame1371.jpg"
        string_val: "/Users/jlim2/PycharmProjects/tensorflow/markedFrames/tile/frame1372.jpg"
        string_val: "/Users/jlim2/PycharmProjects/tensorflow/markedFrames/tile/frame1373.jpg"
        string_val: "/Users/jlim2/PycharmProjects/tensorflow/markedFrames/tile/frame1374.jpg"
        string_val: "/Users/jlim2/PycharmProjects/tensorflow/markedFrames/tile/frame1375.jpg"
        string_val: "/Users/jlim2/PycharmProjects/tensorflow/markedFrames/tile/frame1376.jpg"
        string_val: "/Users/jlim2/PycharmProjects/tensorflow/markedFrames/tile/frame1377.jpg"
        string_val: "/Users/jlim2/PycharmProjects/tensorflow/markedFrames/tile/frame1378.jpg"
        string_val: "/Users/jlim2/PycharmProjects/tensorflow/markedFrames/tile/frame1379.jpg"
        string_val: "/Users/jlim2/PycharmProjects/tensorflow/markedFrames/tile/frame1380.jpg"
        string_val: "/Users/jlim2/PycharmProjects/tensorflow/markedFrames/tile/frame1381.jpg"
        string_val: "/Users/jlim2/PycharmProjects/tensorflow/markedFrames/tile/frame1382.jpg"
        string_val: "/Users/jlim2/PycharmProjects/tensorflow/markedFrames/tile/frame1383.jpg"
        string_val: "/Users/jlim2/PycharmProjects/tensorflow/markedFrames/tile/frame1384.jpg"
        string_val: "/Users/jlim2/PycharmProjects/tensorflow/markedFrames/tile/frame1385.jpg"
        string_val: "/Users/jlim2/PycharmProjects/tensorflow/markedFrames/tile/frame1386.jpg"
        string_val: "/Users/jlim2/PycharmProjects/tensorflow/markedFrames/tile/frame1387.jpg"
        string_val: "/Users/jlim2/PycharmProjects/tensorflow/markedFrames/tile/frame1388.jpg"
        string_val: "/Users/jlim2/PycharmProjects/tensorflow/markedFrames/tile/frame1389.jpg"
        string_val: "/Users/jlim2/PycharmProjects/tensorflow/markedFrames/tile/frame1390.jpg"
        string_val: "/Users/jlim2/PycharmProjects/tensorflow/markedFrames/tile/frame1391.jpg"
        string_val: "/Users/jlim2/PycharmProjects/tensorflow/markedFrames/tile/frame1392.jpg"
        string_val: "/Users/jlim2/PycharmProjects/tensorflow/markedFrames/tile/frame1393.jpg"
        string_val: "/Users/jlim2/PycharmProjects/tensorflow/markedFrames/tile/frame1394.jpg"
        string_val: "/Users/jlim2/PycharmProjects/tensorflow/markedFrames/tile/frame1395.jpg"
        string_val: "/Users/jlim2/PycharmProjects/tensorflow/markedFrames/tile/frame1396.jpg"
        string_val: "/Users/jlim2/PycharmProjects/tensorflow/markedFrames/tile/frame1397.jpg"
        string_val: "/Users/jlim2/PycharmProjects/tensorflow/markedFrames/tile/frame1398.jpg"
        string_val: "/Users/jlim2/PycharmProjects/tensorflow/markedFrames/tile/frame1399.jpg"
        string_val: "/Users/jlim2/PycharmProjects/tensorflow/markedFrames/tile/frame1400.jpg"
        string_val: "/Users/jlim2/PycharmProjects/tensorflow/markedFrames/tile/frame1401.jpg"
        string_val: "/Users/jlim2/PycharmProjects/tensorflow/markedFrames/tile/frame1402.jpg"
        string_val: "/Users/jlim2/PycharmProjects/tensorflow/markedFrames/tile/frame1403.jpg"
        string_val: "/Users/jlim2/PycharmProjects/tensorflow/markedFrames/tile/frame1404.jpg"
        string_val: "/Users/jlim2/PycharmProjects/tensorflow/markedFrames/tile/frame1405.jpg"
        string_val: "/Users/jlim2/PycharmProjects/tensorflow/markedFrames/tile/frame1406.jpg"
        string_val: "/Users/jlim2/PycharmProjects/tensorflow/markedFrames/tile/frame1407.jpg"
        string_val: "/Users/jlim2/PycharmProjects/tensorflow/markedFrames/tile/frame1408.jpg"
        string_val: "/Users/jlim2/PycharmProjects/tensorflow/markedFrames/tile/frame1409.jpg"
        string_val: "/Users/jlim2/PycharmProjects/tensorflow/markedFrames/tile/frame1410.jpg"
        string_val: "/Users/jlim2/PycharmProjects/tensorflow/markedFrames/tile/frame1411.jpg"
        string_val: "/Users/jlim2/PycharmProjects/tensorflow/markedFrames/tile/frame1412.jpg"
        string_val: "/Users/jlim2/PycharmProjects/tensorflow/markedFrames/tile/frame1413.jpg"
        string_val: "/Users/jlim2/PycharmProjects/tensorflow/markedFrames/tile/frame1414.jpg"
        string_val: "/Users/jlim2/PycharmProjects/tensorflow/markedFrames/tile/frame1415.jpg"
        string_val: "/Users/jlim2/PycharmProjects/tensorflow/markedFrames/tile/frame1416.jpg"
        string_val: "/Users/jlim2/PycharmProjects/tensorflow/markedFrames/tile/frame1417.jpg"
        string_val: "/Users/jlim2/PycharmProjects/tensorflow/markedFrames/tile/frame1418.jpg"
        string_val: "/Users/jlim2/PycharmProjects/tensorflow/markedFrames/tile/frame1419.jpg"
        string_val: "/Users/jlim2/PycharmProjects/tensorflow/markedFrames/tile/frame1420.jpg"
        string_val: "/Users/jlim2/PycharmProjects/tensorflow/markedFrames/tile/frame1421.jpg"
        string_val: "/Users/jlim2/PycharmProjects/tensorflow/markedFrames/tile/frame1422.jpg"
        string_val: "/Users/jlim2/PycharmProjects/tensorflow/markedFrames/tile/frame1423.jpg"
        string_val: "/Users/jlim2/PycharmProjects/tensorflow/markedFrames/tile/frame1424.jpg"
        string_val: "/Users/jlim2/PycharmProjects/tensorflow/markedFrames/tile/frame1425.jpg"
        string_val: "/Users/jlim2/PycharmProjects/tensorflow/markedFrames/tile/frame1426.jpg"
        string_val: "/Users/jlim2/PycharmProjects/tensorflow/markedFrames/tile/frame1427.jpg"
        string_val: "/Users/jlim2/PycharmProjects/tensorflow/markedFrames/tile/frame1428.jpg"
        string_val: "/Users/jlim2/PycharmProjects/tensorflow/markedFrames/tile/frame1429.jpg"
        string_val: "/Users/jlim2/PycharmProjects/tensorflow/markedFrames/tile/frame1430.jpg"
        string_val: "/Users/jlim2/PycharmProjects/tensorflow/markedFrames/tile/frame1431.jpg"
        string_val: "/Users/jlim2/PycharmProjects/tensorflow/markedFrames/tile/frame1432.jpg"
        string_val: "/Users/jlim2/PycharmProjects/tensorflow/markedFrames/tile/frame1433.jpg"
        string_val: "/Users/jlim2/PycharmProjects/tensorflow/markedFrames/tile/frame1434.jpg"
        string_val: "/Users/jlim2/PycharmProjects/tensorflow/markedFrames/tile/frame1435.jpg"
        string_val: "/Users/jlim2/PycharmProjects/tensorflow/markedFrames/tile/frame1436.jpg"
        string_val: "/Users/jlim2/PycharmProjects/tensorflow/markedFrames/tile/frame1437.jpg"
        string_val: "/Users/jlim2/PycharmProjects/tensorflow/markedFrames/tile/frame1438.jpg"
        string_val: "/Users/jlim2/PycharmProjects/tensorflow/markedFrames/tile/frame1439.jpg"
        string_val: "/Users/jlim2/PycharmProjects/tensorflow/markedFrames/tile/frame1440.jpg"
        string_val: "/Users/jlim2/PycharmProjects/tensorflow/markedFrames/tile/frame1441.jpg"
        string_val: "/Users/jlim2/PycharmProjects/tensorflow/markedFrames/tile/frame1442.jpg"
        string_val: "/Users/jlim2/PycharmProjects/tensorflow/markedFrames/tile/frame1443.jpg"
        string_val: "/Users/jlim2/PycharmProjects/tensorflow/markedFrames/tile/frame1444.jpg"
        string_val: "/Users/jlim2/PycharmProjects/tensorflow/markedFrames/tile/frame1445.jpg"
        string_val: "/Users/jlim2/PycharmProjects/tensorflow/markedFrames/tile/frame1446.jpg"
        string_val: "/Users/jlim2/PycharmProjects/tensorflow/markedFrames/tile/frame1447.jpg"
        string_val: "/Users/jlim2/PycharmProjects/tensorflow/markedFrames/tile/frame1448.jpg"
        string_val: "/Users/jlim2/PycharmProjects/tensorflow/markedFrames/tile/frame1449.jpg"
        string_val: "/Users/jlim2/PycharmProjects/tensorflow/markedFrames/tile/frame1450.jpg"
        string_val: "/Users/jlim2/PycharmProjects/tensorflow/markedFrames/tile/frame1451.jpg"
        string_val: "/Users/jlim2/PycharmProjects/tensorflow/markedFrames/tile/frame1452.jpg"
        string_val: "/Users/jlim2/PycharmProjects/tensorflow/markedFrames/tile/frame1453.jpg"
        string_val: "/Users/jlim2/PycharmProjects/tensorflow/markedFrames/tile/frame1454.jpg"
        string_val: "/Users/jlim2/PycharmProjects/tensorflow/markedFrames/tile/frame1455.jpg"
        string_val: "/Users/jlim2/PycharmProjects/tensorflow/markedFrames/tile/frame1456.jpg"
        string_val: "/Users/jlim2/PycharmProjects/tensorflow/markedFrames/tile/frame1457.jpg"
        string_val: "/Users/jlim2/PycharmProjects/tensorflow/markedFrames/tile/frame1458.jpg"
        string_val: "/Users/jlim2/PycharmProjects/tensorflow/markedFrames/tile/frame1459.jpg"
        string_val: "/Users/jlim2/PycharmProjects/tensorflow/markedFrames/tile/frame1460.jpg"
        string_val: "/Users/jlim2/PycharmProjects/tensorflow/markedFrames/tile/frame1461.jpg"
        string_val: "/Users/jlim2/PycharmProjects/tensorflow/markedFrames/tile/frame1462.jpg"
        string_val: "/Users/jlim2/PycharmProjects/tensorflow/markedFrames/tile/frame1463.jpg"
        string_val: "/Users/jlim2/PycharmProjects/tensorflow/markedFrames/tile/frame1464.jpg"
        string_val: "/Users/jlim2/PycharmProjects/tensorflow/markedFrames/tile/frame1465.jpg"
        string_val: "/Users/jlim2/PycharmProjects/tensorflow/markedFrames/tile/frame1466.jpg"
        string_val: "/Users/jlim2/PycharmProjects/tensorflow/markedFrames/tile/frame1467.jpg"
        string_val: "/Users/jlim2/PycharmProjects/tensorflow/markedFrames/tile/frame1468.jpg"
        string_val: "/Users/jlim2/PycharmProjects/tensorflow/markedFrames/tile/frame1469.jpg"
        string_val: "/Users/jlim2/PycharmProjects/tensorflow/markedFrames/tile/frame1470.jpg"
        string_val: "/Users/jlim2/PycharmProjects/tensorflow/markedFrames/tile/frame1471.jpg"
        string_val: "/Users/jlim2/PycharmProjects/tensorflow/markedFrames/tile/frame1472.jpg"
        string_val: "/Users/jlim2/PycharmProjects/tensorflow/markedFrames/tile/frame1473.jpg"
        string_val: "/Users/jlim2/PycharmProjects/tensorflow/markedFrames/tile/frame1474.jpg"
        string_val: "/Users/jlim2/PycharmProjects/tensorflow/markedFrames/tile/frame1475.jpg"
        string_val: "/Users/jlim2/PycharmProjects/tensorflow/markedFrames/tile/frame1476.jpg"
        string_val: "/Users/jlim2/PycharmProjects/tensorflow/markedFrames/tile/frame1477.jpg"
        string_val: "/Users/jlim2/PycharmProjects/tensorflow/markedFrames/tile/frame1478.jpg"
        string_val: "/Users/jlim2/PycharmProjects/tensorflow/markedFrames/tile/frame1479.jpg"
        string_val: "/Users/jlim2/PycharmProjects/tensorflow/markedFrames/tile/frame1480.jpg"
        string_val: "/Users/jlim2/PycharmProjects/tensorflow/markedFrames/tile/frame1481.jpg"
        string_val: "/Users/jlim2/PycharmProjects/tensorflow/markedFrames/tile/frame1482.jpg"
        string_val: "/Users/jlim2/PycharmProjects/tensorflow/markedFrames/tile/frame1483.jpg"
        string_val: "/Users/jlim2/PycharmProjects/tensorflow/markedFrames/tile/frame1484.jpg"
        string_val: "/Users/jlim2/PycharmProjects/tensorflow/markedFrames/tile/frame1485.jpg"
        string_val: "/Users/jlim2/PycharmProjects/tensorflow/markedFrames/tile/frame1486.jpg"
        string_val: "/Users/jlim2/PycharmProjects/tensorflow/markedFrames/tile/frame1487.jpg"
        string_val: "/Users/jlim2/PycharmProjects/tensorflow/markedFrames/tile/frame1488.jpg"
        string_val: "/Users/jlim2/PycharmProjects/tensorflow/markedFrames/tile/frame1489.jpg"
        string_val: "/Users/jlim2/PycharmProjects/tensorflow/markedFrames/tile/frame1490.jpg"
        string_val: "/Users/jlim2/PycharmProjects/tensorflow/markedFrames/tile/frame1491.jpg"
        string_val: "/Users/jlim2/PycharmProjects/tensorflow/markedFrames/tile/frame1492.jpg"
        string_val: "/Users/jlim2/PycharmProjects/tensorflow/markedFrames/tile/frame1493.jpg"
        string_val: "/Users/jlim2/PycharmProjects/tensorflow/markedFrames/tile/frame1494.jpg"
        string_val: "/Users/jlim2/PycharmProjects/tensorflow/markedFrames/tile/frame1495.jpg"
        string_val: "/Users/jlim2/PycharmProjects/tensorflow/markedFrames/tile/frame1496.jpg"
        string_val: "/Users/jlim2/PycharmProjects/tensorflow/markedFrames/tile/frame1497.jpg"
        string_val: "/Users/jlim2/PycharmProjects/tensorflow/markedFrames/tile/frame1498.jpg"
        string_val: "/Users/jlim2/PycharmProjects/tensorflow/markedFrames/tile/frame1499.jpg"
        string_val: "/Users/jlim2/PycharmProjects/tensorflow/markedFrames/tile/frame1500.jpg"
        string_val: "/Users/jlim2/PycharmProjects/tensorflow/markedFrames/tile/frame1501.jpg"
        string_val: "/Users/jlim2/PycharmProjects/tensorflow/markedFrames/tile/frame1502.jpg"
        string_val: "/Users/jlim2/PycharmProjects/tensorflow/markedFrames/tile/frame1503.jpg"
        string_val: "/Users/jlim2/PycharmProjects/tensorflow/markedFrames/tile/frame1504.jpg"
        string_val: "/Users/jlim2/PycharmProjects/tensorflow/markedFrames/tile/frame1505.jpg"
        string_val: "/Users/jlim2/PycharmProjects/tensorflow/markedFrames/tile/frame1506.jpg"
        string_val: "/Users/jlim2/PycharmProjects/tensorflow/markedFrames/tile/frame1507.jpg"
        string_val: "/Users/jlim2/PycharmProjects/tensorflow/markedFrames/tile/frame1508.jpg"
        string_val: "/Users/jlim2/PycharmProjects/tensorflow/markedFrames/tile/frame1509.jpg"
        string_val: "/Users/jlim2/PycharmProjects/tensorflow/markedFrames/tile/frame1510.jpg"
        string_val: "/Users/jlim2/PycharmProjects/tensorflow/markedFrames/tile/frame1511.jpg"
        string_val: "/Users/jlim2/PycharmProjects/tensorflow/markedFrames/tile/frame1512.jpg"
        string_val: "/Users/jlim2/PycharmProjects/tensorflow/markedFrames/tile/frame1513.jpg"
        string_val: "/Users/jlim2/PycharmProjects/tensorflow/markedFrames/tile/frame1514.jpg"
        string_val: "/Users/jlim2/PycharmProjects/tensorflow/markedFrames/tile/frame1515.jpg"
        string_val: "/Users/jlim2/PycharmProjects/tensorflow/markedFrames/tile/frame1516.jpg"
        string_val: "/Users/jlim2/PycharmProjects/tensorflow/markedFrames/tile/frame1517.jpg"
        string_val: "/Users/jlim2/PycharmProjects/tensorflow/markedFrames/tile/frame1518.jpg"
        string_val: "/Users/jlim2/PycharmProjects/tensorflow/markedFrames/tile/frame1519.jpg"
        string_val: "/Users/jlim2/PycharmProjects/tensorflow/markedFrames/tile/frame1520.jpg"
        string_val: "/Users/jlim2/PycharmProjects/tensorflow/markedFrames/tile/frame1521.jpg"
        string_val: "/Users/jlim2/PycharmProjects/tensorflow/markedFrames/tile/frame1522.jpg"
        string_val: "/Users/jlim2/PycharmProjects/tensorflow/markedFrames/tile/frame1523.jpg"
        string_val: "/Users/jlim2/PycharmProjects/tensorflow/markedFrames/tile/frame1524.jpg"
        string_val: "/Users/jlim2/PycharmProjects/tensorflow/markedFrames/tile/frame1525.jpg"
        string_val: "/Users/jlim2/PycharmProjects/tensorflow/markedFrames/tile/frame1526.jpg"
        string_val: "/Users/jlim2/PycharmProjects/tensorflow/markedFrames/tile/frame1527.jpg"
        string_val: "/Users/jlim2/PycharmProjects/tensorflow/markedFrames/tile/frame1528.jpg"
        string_val: "/Users/jlim2/PycharmProjects/tensorflow/markedFrames/tile/frame1529.jpg"
        string_val: "/Users/jlim2/PycharmProjects/tensorflow/markedFrames/tile/frame1530.jpg"
        string_val: "/Users/jlim2/PycharmProjects/tensorflow/markedFrames/tile/frame1531.jpg"
        string_val: "/Users/jlim2/PycharmProjects/tensorflow/markedFrames/tile/frame1532.jpg"
        string_val: "/Users/jlim2/PycharmProjects/tensorflow/markedFrames/tile/frame1533.jpg"
        string_val: "/Users/jlim2/PycharmProjects/tensorflow/markedFrames/tile/frame1534.jpg"
        string_val: "/Users/jlim2/PycharmProjects/tensorflow/markedFrames/tile/frame1535.jpg"
        string_val: "/Users/jlim2/PycharmProjects/tensorflow/markedFrames/tile/frame1536.jpg"
        string_val: "/Users/jlim2/PycharmProjects/tensorflow/markedFrames/tile/frame1537.jpg"
        string_val: "/Users/jlim2/PycharmProjects/tensorflow/markedFrames/tile/frame1538.jpg"
        string_val: "/Users/jlim2/PycharmProjects/tensorflow/markedFrames/tile/frame1539.jpg"
        string_val: "/Users/jlim2/PycharmProjects/tensorflow/markedFrames/tile/frame1540.jpg"
        string_val: "/Users/jlim2/PycharmProjects/tensorflow/markedFrames/tile/frame1541.jpg"
        string_val: "/Users/jlim2/PycharmProjects/tensorflow/markedFrames/tile/frame1542.jpg"
        string_val: "/Users/jlim2/PycharmProjects/tensorflow/markedFrames/tile/frame1543.jpg"
        string_val: "/Users/jlim2/PycharmProjects/tensorflow/markedFrames/tile/frame1544.jpg"
        string_val: "/Users/jlim2/PycharmProjects/tensorflow/markedFrames/tile/frame1545.jpg"
        string_val: "/Users/jlim2/PycharmProjects/tensorflow/markedFrames/tile/frame1546.jpg"
        string_val: "/Users/jlim2/PycharmProjects/tensorflow/markedFrames/tile/frame1547.jpg"
        string_val: "/Users/jlim2/PycharmProjects/tensorflow/markedFrames/tile/frame1548.jpg"
        string_val: "/Users/jlim2/PycharmProjects/tensorflow/markedFrames/tile/frame1549.jpg"
        string_val: "/Users/jlim2/PycharmProjects/tensorflow/markedFrames/tile/frame1550.jpg"
        string_val: "/Users/jlim2/PycharmProjects/tensorflow/markedFrames/tile/frame1551.jpg"
        string_val: "/Users/jlim2/PycharmProjects/tensorflow/markedFrames/tile/frame1552.jpg"
        string_val: "/Users/jlim2/PycharmProjects/tensorflow/markedFrames/tile/frame1553.jpg"
        string_val: "/Users/jlim2/PycharmProjects/tensorflow/markedFrames/tile/frame1554.jpg"
        string_val: "/Users/jlim2/PycharmProjects/tensorflow/markedFrames/tile/frame1555.jpg"
        string_val: "/Users/jlim2/PycharmProjects/tensorflow/markedFrames/tile/frame1556.jpg"
        string_val: "/Users/jlim2/PycharmProjects/tensorflow/markedFrames/tile/frame1557.jpg"
        string_val: "/Users/jlim2/PycharmProjects/tensorflow/markedFrames/tile/frame1558.jpg"
        string_val: "/Users/jlim2/PycharmProjects/tensorflow/markedFrames/tile/frame1559.jpg"
        string_val: "/Users/jlim2/PycharmProjects/tensorflow/markedFrames/tile/frame1560.jpg"
        string_val: "/Users/jlim2/PycharmProjects/tensorflow/markedFrames/tile/frame1561.jpg"
        string_val: "/Users/jlim2/PycharmProjects/tensorflow/markedFrames/tile/frame1562.jpg"
        string_val: "/Users/jlim2/PycharmProjects/tensorflow/markedFrames/tile/frame1563.jpg"
        string_val: "/Users/jlim2/PycharmProjects/tensorflow/markedFrames/tile/frame1564.jpg"
        string_val: "/Users/jlim2/PycharmProjects/tensorflow/markedFrames/tile/frame1565.jpg"
        string_val: "/Users/jlim2/PycharmProjects/tensorflow/markedFrames/tile/frame1566.jpg"
        string_val: "/Users/jlim2/PycharmProjects/tensorflow/markedFrames/tile/frame1567.jpg"
        string_val: "/Users/jlim2/PycharmProjects/tensorflow/markedFrames/tile/frame1568.jpg"
        string_val: "/Users/jlim2/PycharmProjects/tensorflow/markedFrames/tile/frame1569.jpg"
        string_val: "/Users/jlim2/PycharmProjects/tensorflow/markedFrames/tile/frame1570.jpg"
        string_val: "/Users/jlim2/PycharmProjects/tensorflow/markedFrames/tile/frame1571.jpg"
        string_val: "/Users/jlim2/PycharmProjects/tensorflow/markedFrames/tile/frame1572.jpg"
        string_val: "/Users/jlim2/PycharmProjects/tensorflow/markedFrames/tile/frame1573.jpg"
        string_val: "/Users/jlim2/PycharmProjects/tensorflow/markedFrames/tile/frame1574.jpg"
        string_val: "/Users/jlim2/PycharmProjects/tensorflow/markedFrames/tile/frame1575.jpg"
        string_val: "/Users/jlim2/PycharmProjects/tensorflow/markedFrames/tile/frame1576.jpg"
        string_val: "/Users/jlim2/PycharmProjects/tensorflow/markedFrames/tile/frame1577.jpg"
        string_val: "/Users/jlim2/PycharmProjects/tensorflow/markedFrames/tile/frame1578.jpg"
        string_val: "/Users/jlim2/PycharmProjects/tensorflow/markedFrames/tile/frame1579.jpg"
        string_val: "/Users/jlim2/PycharmProjects/tensorflow/markedFrames/tile/frame1580.jpg"
        string_val: "/Users/jlim2/PycharmProjects/tensorflow/markedFrames/tile/frame1581.jpg"
        string_val: "/Users/jlim2/PycharmProjects/tensorflow/markedFrames/tile/frame1582.jpg"
        string_val: "/Users/jlim2/PycharmProjects/tensorflow/markedFrames/tile/frame1583.jpg"
        string_val: "/Users/jlim2/PycharmProjects/tensorflow/markedFrames/tile/frame1584.jpg"
        string_val: "/Users/jlim2/PycharmProjects/tensorflow/markedFrames/tile/frame1585.jpg"
        string_val: "/Users/jlim2/PycharmProjects/tensorflow/markedFrames/tile/frame1586.jpg"
        string_val: "/Users/jlim2/PycharmProjects/tensorflow/markedFrames/tile/frame1587.jpg"
        string_val: "/Users/jlim2/PycharmProjects/tensorflow/markedFrames/tile/frame1588.jpg"
        string_val: "/Users/jlim2/PycharmProjects/tensorflow/markedFrames/tile/frame1589.jpg"
        string_val: "/Users/jlim2/PycharmProjects/tensorflow/markedFrames/tile/frame1590.jpg"
        string_val: "/Users/jlim2/PycharmProjects/tensorflow/markedFrames/tile/frame1591.jpg"
        string_val: "/Users/jlim2/PycharmProjects/tensorflow/markedFrames/tile/frame1592.jpg"
        string_val: "/Users/jlim2/PycharmProjects/tensorflow/markedFrames/tile/frame1593.jpg"
        string_val: "/Users/jlim2/PycharmProjects/tensorflow/markedFrames/tile/frame1594.jpg"
        string_val: "/Users/jlim2/PycharmProjects/tensorflow/markedFrames/tile/frame1595.jpg"
        string_val: "/Users/jlim2/PycharmProjects/tensorflow/markedFrames/tile/frame1596.jpg"
        string_val: "/Users/jlim2/PycharmProjects/tensorflow/markedFrames/tile/frame1597.jpg"
        string_val: "/Users/jlim2/PycharmProjects/tensorflow/markedFrames/tile/frame1598.jpg"
        string_val: "/Users/jlim2/PycharmProjects/tensorflow/markedFrames/tile/frame1599.jpg"
        string_val: "/Users/jlim2/PycharmProjects/tensorflow/markedFrames/tile/frame1600.jpg"
        string_val: "/Users/jlim2/PycharmProjects/tensorflow/markedFrames/tile/frame1601.jpg"
        string_val: "/Users/jlim2/PycharmProjects/tensorflow/markedFrames/tile/frame1602.jpg"
        string_val: "/Users/jlim2/PycharmProjects/tensorflow/markedFrames/tile/frame1603.jpg"
        string_val: "/Users/jlim2/PycharmProjects/tensorflow/markedFrames/tile/frame1604.jpg"
        string_val: "/Users/jlim2/PycharmProjects/tensorflow/markedFrames/tile/frame1605.jpg"
        string_val: "/Users/jlim2/PycharmProjects/tensorflow/markedFrames/tile/frame1606.jpg"
        string_val: "/Users/jlim2/PycharmProjects/tensorflow/markedFrames/tile/frame1607.jpg"
        string_val: "/Users/jlim2/PycharmProjects/tensorflow/markedFrames/tile/frame1608.jpg"
        string_val: "/Users/jlim2/PycharmProjects/tensorflow/markedFrames/tile/frame1609.jpg"
        string_val: "/Users/jlim2/PycharmProjects/tensorflow/markedFrames/tile/frame1610.jpg"
        string_val: "/Users/jlim2/PycharmProjects/tensorflow/markedFrames/tile/frame1611.jpg"
        string_val: "/Users/jlim2/PycharmProjects/tensorflow/markedFrames/tile/frame1612.jpg"
        string_val: "/Users/jlim2/PycharmProjects/tensorflow/markedFrames/tile/frame1613.jpg"
        string_val: "/Users/jlim2/PycharmProjects/tensorflow/markedFrames/tile/frame1614.jpg"
        string_val: "/Users/jlim2/PycharmProjects/tensorflow/markedFrames/tile/frame2720.jpg"
        string_val: "/Users/jlim2/PycharmProjects/tensorflow/markedFrames/tile/frame2721.jpg"
        string_val: "/Users/jlim2/PycharmProjects/tensorflow/markedFrames/tile/frame2722.jpg"
        string_val: "/Users/jlim2/PycharmProjects/tensorflow/markedFrames/tile/frame2723.jpg"
        string_val: "/Users/jlim2/PycharmProjects/tensorflow/markedFrames/tile/frame2724.jpg"
        string_val: "/Users/jlim2/PycharmProjects/tensorflow/markedFrames/tile/frame2725.jpg"
        string_val: "/Users/jlim2/PycharmProjects/tensorflow/markedFrames/tile/frame2726.jpg"
        string_val: "/Users/jlim2/PycharmProjects/tensorflow/markedFrames/tile/frame2727.jpg"
        string_val: "/Users/jlim2/PycharmProjects/tensorflow/markedFrames/tile/frame2728.jpg"
        string_val: "/Users/jlim2/PycharmProjects/tensorflow/markedFrames/tile/frame2729.jpg"
        string_val: "/Users/jlim2/PycharmProjects/tensorflow/markedFrames/tile/frame2730.jpg"
        string_val: "/Users/jlim2/PycharmProjects/tensorflow/markedFrames/tile/frame2731.jpg"
        string_val: "/Users/jlim2/PycharmProjects/tensorflow/markedFrames/tile/frame2732.jpg"
        string_val: "/Users/jlim2/PycharmProjects/tensorflow/markedFrames/tile/frame2733.jpg"
        string_val: "/Users/jlim2/PycharmProjects/tensorflow/markedFrames/tile/frame2734.jpg"
        string_val: "/Users/jlim2/PycharmProjects/tensorflow/markedFrames/tile/frame2735.jpg"
        string_val: "/Users/jlim2/PycharmProjects/tensorflow/markedFrames/tile/frame2736.jpg"
        string_val: "/Users/jlim2/PycharmProjects/tensorflow/markedFrames/tile/frame2737.jpg"
        string_val: "/Users/jlim2/PycharmProjects/tensorflow/markedFrames/tile/frame2738.jpg"
        string_val: "/Users/jlim2/PycharmProjects/tensorflow/markedFrames/tile/frame2739.jpg"
        string_val: "/Users/jlim2/PycharmProjects/tensorflow/markedFrames/tile/frame2740.jpg"
        string_val: "/Users/jlim2/PycharmProjects/tensorflow/markedFrames/tile/frame2741.jpg"
        string_val: "/Users/jlim2/PycharmProjects/tensorflow/markedFrames/tile/frame2742.jpg"
        string_val: "/Users/jlim2/PycharmProjects/tensorflow/markedFrames/tile/frame2744.jpg"
        string_val: "/Users/jlim2/PycharmProjects/tensorflow/markedFrames/tile/frame2745.jpg"
        string_val: "/Users/jlim2/PycharmProjects/tensorflow/markedFrames/tile/frame2746.jpg"
        string_val: "/Users/jlim2/PycharmProjects/tensorflow/markedFrames/tile/frame2747.jpg"
        string_val: "/Users/jlim2/PycharmProjects/tensorflow/markedFrames/tile/frame2748.jpg"
        string_val: "/Users/jlim2/PycharmProjects/tensorflow/markedFrames/tile/frame2749.jpg"
        string_val: "/Users/jlim2/PycharmProjects/tensorflow/markedFrames/tile/frame2750.jpg"
        string_val: "/Users/jlim2/PycharmProjects/tensorflow/markedFrames/tile/frame2751.jpg"
        string_val: "/Users/jlim2/PycharmProjects/tensorflow/markedFrames/tile/frame2752.jpg"
        string_val: "/Users/jlim2/PycharmProjects/tensorflow/markedFrames/tile/frame2754.jpg"
        string_val: "/Users/jlim2/PycharmProjects/tensorflow/markedFrames/tile/frame2755.jpg"
        string_val: "/Users/jlim2/PycharmProjects/tensorflow/markedFrames/tile/frame2756.jpg"
        string_val: "/Users/jlim2/PycharmProjects/tensorflow/markedFrames/tile/frame2757.jpg"
        string_val: "/Users/jlim2/PycharmProjects/tensorflow/markedFrames/tile/frame2758.jpg"
        string_val: "/Users/jlim2/PycharmProjects/tensorflow/markedFrames/tile/frame2759.jpg"
        string_val: "/Users/jlim2/PycharmProjects/tensorflow/markedFrames/tile/frame2760.jpg"
        string_val: "/Users/jlim2/PycharmProjects/tensorflow/markedFrames/tile/frame2761.jpg"
        string_val: "/Users/jlim2/PycharmProjects/tensorflow/markedFrames/tile/frame2762.jpg"
        string_val: "/Users/jlim2/PycharmProjects/tensorflow/markedFrames/tile/frame2763.jpg"
        string_val: "/Users/jlim2/PycharmProjects/tensorflow/markedFrames/tile/frame2764.jpg"
        string_val: "/Users/jlim2/PycharmProjects/tensorflow/markedFrames/tile/frame2765.jpg"
        string_val: "/Users/jlim2/PycharmProjects/tensorflow/markedFrames/tile/frame2766.jpg"
        string_val: "/Users/jlim2/PycharmProjects/tensorflow/markedFrames/tile/frame2767.jpg"
        string_val: "/Users/jlim2/PycharmProjects/tensorflow/markedFrames/tile/frame2768.jpg"
        string_val: "/Users/jlim2/PycharmProjects/tensorflow/markedFrames/tile/frame2769.jpg"
        string_val: "/Users/jlim2/PycharmProjects/tensorflow/markedFrames/tile/frame2770.jpg"
        string_val: "/Users/jlim2/PycharmProjects/tensorflow/markedFrames/tile/frame2771.jpg"
        string_val: "/Users/jlim2/PycharmProjects/tensorflow/markedFrames/tile/frame2772.jpg"
        string_val: "/Users/jlim2/PycharmProjects/tensorflow/markedFrames/tile/frame2773.jpg"
        string_val: "/Users/jlim2/PycharmProjects/tensorflow/markedFrames/tile/frame2774.jpg"
        string_val: "/Users/jlim2/PycharmProjects/tensorflow/markedFrames/tile/frame2775.jpg"
        string_val: "/Users/jlim2/PycharmProjects/tensorflow/markedFrames/tile/frame2776.jpg"
        string_val: "/Users/jlim2/PycharmProjects/tensorflow/markedFrames/tile/frame2777.jpg"
        string_val: "/Users/jlim2/PycharmProjects/tensorflow/markedFrames/tile/frame2778.jpg"
        string_val: "/Users/jlim2/PycharmProjects/tensorflow/markedFrames/tile/frame2779.jpg"
        string_val: "/Users/jlim2/PycharmProjects/tensorflow/markedFrames/tile/frame2780.jpg"
        string_val: "/Users/jlim2/PycharmProjects/tensorflow/markedFrames/tile/frame2781.jpg"
        string_val: "/Users/jlim2/PycharmProjects/tensorflow/markedFrames/tile/frame2782.jpg"
        string_val: "/Users/jlim2/PycharmProjects/tensorflow/markedFrames/tile/frame2783.jpg"
        string_val: "/Users/jlim2/PycharmProjects/tensorflow/markedFrames/tile/frame2784.jpg"
        string_val: "/Users/jlim2/PycharmProjects/tensorflow/markedFrames/tile/frame2785.jpg"
        string_val: "/Users/jlim2/PycharmProjects/tensorflow/markedFrames/tile/frame2786.jpg"
        string_val: "/Users/jlim2/PycharmProjects/tensorflow/markedFrames/tile/frame2787.jpg"
        string_val: "/Users/jlim2/PycharmProjects/tensorflow/markedFrames/tile/frame2788.jpg"
        string_val: "/Users/jlim2/PycharmProjects/tensorflow/markedFrames/tile/frame2789.jpg"
        string_val: "/Users/jlim2/PycharmProjects/tensorflow/markedFrames/tile/frame2790.jpg"
        string_val: "/Users/jlim2/PycharmProjects/tensorflow/markedFrames/tile/frame2791.jpg"
        string_val: "/Users/jlim2/PycharmProjects/tensorflow/markedFrames/tile/frame2792.jpg"
        string_val: "/Users/jlim2/PycharmProjects/tensorflow/markedFrames/tile/frame2793.jpg"
        string_val: "/Users/jlim2/PycharmProjects/tensorflow/markedFrames/tile/frame2794.jpg"
        string_val: "/Users/jlim2/PycharmProjects/tensorflow/markedFrames/tile/frame2795.jpg"
        string_val: "/Users/jlim2/PycharmProjects/tensorflow/markedFrames/tile/frame2796.jpg"
        string_val: "/Users/jlim2/PycharmProjects/tensorflow/markedFrames/tile/frame2797.jpg"
        string_val: "/Users/jlim2/PycharmProjects/tensorflow/markedFrames/tile/frame3931.jpg"
      }
    }
  }
}
node {
  name: "input/input_producer/Size"
  op: "Const"
  attr {
    key: "_output_shapes"
    value {
      list {
        shape {
        }
      }
    }
  }
  attr {
    key: "dtype"
    value {
      type: DT_INT32
    }
  }
  attr {
    key: "value"
    value {
      tensor {
        dtype: DT_INT32
        tensor_shape {
        }
        int_val: 888
      }
    }
  }
}
node {
  name: "input/input_producer/Greater/y"
  op: "Const"
  attr {
    key: "_output_shapes"
    value {
      list {
        shape {
        }
      }
    }
  }
  attr {
    key: "dtype"
    value {
      type: DT_INT32
    }
  }
  attr {
    key: "value"
    value {
      tensor {
        dtype: DT_INT32
        tensor_shape {
        }
        int_val: 0
      }
    }
  }
}
node {
  name: "input/input_producer/Greater"
  op: "Greater"
  input: "input/input_producer/Size"
  input: "input/input_producer/Greater/y"
  attr {
    key: "T"
    value {
      type: DT_INT32
    }
  }
  attr {
    key: "_output_shapes"
    value {
      list {
        shape {
        }
      }
    }
  }
}
node {
  name: "input/input_producer/Assert/Const"
  op: "Const"
  attr {
    key: "_output_shapes"
    value {
      list {
        shape {
        }
      }
    }
  }
  attr {
    key: "dtype"
    value {
      type: DT_STRING
    }
  }
  attr {
    key: "value"
    value {
      tensor {
        dtype: DT_STRING
        tensor_shape {
        }
        string_val: "string_input_producer requires a non-null input tensor"
      }
    }
  }
}
node {
  name: "input/input_producer/Assert/Assert/data_0"
  op: "Const"
  attr {
    key: "_output_shapes"
    value {
      list {
        shape {
        }
      }
    }
  }
  attr {
    key: "dtype"
    value {
      type: DT_STRING
    }
  }
  attr {
    key: "value"
    value {
      tensor {
        dtype: DT_STRING
        tensor_shape {
        }
        string_val: "string_input_producer requires a non-null input tensor"
      }
    }
  }
}
node {
  name: "input/input_producer/Assert/Assert"
  op: "Assert"
  input: "input/input_producer/Greater"
  input: "input/input_producer/Assert/Assert/data_0"
  attr {
    key: "T"
    value {
      list {
        type: DT_STRING
      }
    }
  }
  attr {
    key: "summarize"
    value {
      i: 3
    }
  }
}
node {
  name: "input/input_producer/Identity"
  op: "Identity"
  input: "input/input_producer/Const"
  input: "^input/input_producer/Assert/Assert"
  attr {
    key: "T"
    value {
      type: DT_STRING
    }
  }
  attr {
    key: "_output_shapes"
    value {
      list {
        shape {
          dim {
            size: 888
          }
        }
      }
    }
  }
}
node {
  name: "input/input_producer/RandomShuffle"
  op: "RandomShuffle"
  input: "input/input_producer/Identity"
  attr {
    key: "T"
    value {
      type: DT_STRING
    }
  }
  attr {
    key: "_output_shapes"
    value {
      list {
        shape {
          dim {
            size: 888
          }
        }
      }
    }
  }
  attr {
    key: "seed"
    value {
      i: 0
    }
  }
  attr {
    key: "seed2"
    value {
      i: 0
    }
  }
}
node {
  name: "input/input_producer"
  op: "FIFOQueueV2"
  attr {
    key: "_output_shapes"
    value {
      list {
        shape {
        }
      }
    }
  }
  attr {
    key: "capacity"
    value {
      i: 32
    }
  }
  attr {
    key: "component_types"
    value {
      list {
        type: DT_STRING
      }
    }
  }
  attr {
    key: "container"
    value {
      s: ""
    }
  }
  attr {
    key: "shapes"
    value {
      list {
        shape {
        }
      }
    }
  }
  attr {
    key: "shared_name"
    value {
      s: ""
    }
  }
}
node {
  name: "input/input_producer/input_producer_EnqueueMany"
  op: "QueueEnqueueManyV2"
  input: "input/input_producer"
  input: "input/input_producer/RandomShuffle"
  attr {
    key: "Tcomponents"
    value {
      list {
        type: DT_STRING
      }
    }
  }
  attr {
    key: "timeout_ms"
    value {
      i: -1
    }
  }
}
node {
  name: "input/input_producer/input_producer_Close"
  op: "QueueCloseV2"
  input: "input/input_producer"
  attr {
    key: "cancel_pending_enqueues"
    value {
      b: false
    }
  }
}
node {
  name: "input/input_producer/input_producer_Close_1"
  op: "QueueCloseV2"
  input: "input/input_producer"
  attr {
    key: "cancel_pending_enqueues"
    value {
      b: true
    }
  }
}
node {
  name: "input/input_producer/input_producer_Size"
  op: "QueueSizeV2"
  input: "input/input_producer"
  attr {
    key: "_output_shapes"
    value {
      list {
        shape {
        }
      }
    }
  }
}
node {
  name: "input/input_producer/Cast"
  op: "Cast"
  input: "input/input_producer/input_producer_Size"
  attr {
    key: "DstT"
    value {
      type: DT_FLOAT
    }
  }
  attr {
    key: "SrcT"
    value {
      type: DT_INT32
    }
  }
  attr {
    key: "_output_shapes"
    value {
      list {
        shape {
        }
      }
    }
  }
}
node {
  name: "input/input_producer/mul/y"
  op: "Const"
  attr {
    key: "_output_shapes"
    value {
      list {
        shape {
        }
      }
    }
  }
  attr {
    key: "dtype"
    value {
      type: DT_FLOAT
    }
  }
  attr {
    key: "value"
    value {
      tensor {
        dtype: DT_FLOAT
        tensor_shape {
        }
        float_val: 0.03125
      }
    }
  }
}
node {
  name: "input/input_producer/mul"
  op: "Mul"
  input: "input/input_producer/Cast"
  input: "input/input_producer/mul/y"
  attr {
    key: "T"
    value {
      type: DT_FLOAT
    }
  }
  attr {
    key: "_output_shapes"
    value {
      list {
        shape {
        }
      }
    }
  }
}
node {
  name: "input/input_producer/fraction_of_32_full/tags"
  op: "Const"
  attr {
    key: "_output_shapes"
    value {
      list {
        shape {
        }
      }
    }
  }
  attr {
    key: "dtype"
    value {
      type: DT_STRING
    }
  }
  attr {
    key: "value"
    value {
      tensor {
        dtype: DT_STRING
        tensor_shape {
        }
        string_val: "input/input_producer/fraction_of_32_full"
      }
    }
  }
}
node {
  name: "input/input_producer/fraction_of_32_full"
  op: "ScalarSummary"
  input: "input/input_producer/fraction_of_32_full/tags"
  input: "input/input_producer/mul"
  attr {
    key: "T"
    value {
      type: DT_FLOAT
    }
  }
  attr {
    key: "_output_shapes"
    value {
      list {
        shape {
        }
      }
    }
  }
}
node {
  name: "FixedLengthRecordReaderV2"
  op: "FixedLengthRecordReaderV2"
  attr {
    key: "_output_shapes"
    value {
      list {
        shape {
        }
      }
    }
  }
  attr {
    key: "container"
    value {
      s: ""
    }
  }
  attr {
    key: "footer_bytes"
    value {
      i: 0
    }
  }
  attr {
    key: "header_bytes"
    value {
      i: 0
    }
  }
  attr {
    key: "hop_bytes"
    value {
      i: 0
    }
  }
  attr {
    key: "record_bytes"
    value {
      i: 921601
    }
  }
  attr {
    key: "shared_name"
    value {
      s: ""
    }
  }
}
node {
  name: "ReaderReadV2"
  op: "ReaderReadV2"
  input: "FixedLengthRecordReaderV2"
  input: "input/input_producer"
  attr {
    key: "_output_shapes"
    value {
      list {
        shape {
        }
        shape {
        }
      }
    }
  }
}
node {
  name: "DecodeRaw"
  op: "DecodeRaw"
  input: "ReaderReadV2:1"
  attr {
    key: "_output_shapes"
    value {
      list {
        shape {
          dim {
            size: -1
          }
        }
      }
    }
  }
  attr {
    key: "little_endian"
    value {
      b: true
    }
  }
  attr {
    key: "out_type"
    value {
      type: DT_UINT8
    }
  }
}
node {
  name: "ones_like/tensor"
  op: "Const"
  attr {
    key: "_output_shapes"
    value {
      list {
        shape {
          dim {
            size: 1
          }
        }
      }
    }
  }
  attr {
    key: "dtype"
    value {
      type: DT_INT32
    }
  }
  attr {
    key: "value"
    value {
      tensor {
        dtype: DT_INT32
        tensor_shape {
          dim {
            size: 1
          }
        }
        int_val: 0
      }
    }
  }
}
node {
  name: "ones_like/Shape"
  op: "Const"
  attr {
    key: "_output_shapes"
    value {
      list {
        shape {
          dim {
            size: 1
          }
        }
      }
    }
  }
  attr {
    key: "dtype"
    value {
      type: DT_INT32
    }
  }
  attr {
    key: "value"
    value {
      tensor {
        dtype: DT_INT32
        tensor_shape {
          dim {
            size: 1
          }
        }
        int_val: 1
      }
    }
  }
}
node {
  name: "ones_like/Const"
  op: "Const"
  attr {
    key: "_output_shapes"
    value {
      list {
        shape {
        }
      }
    }
  }
  attr {
    key: "dtype"
    value {
      type: DT_INT32
    }
  }
  attr {
    key: "value"
    value {
      tensor {
        dtype: DT_INT32
        tensor_shape {
        }
        int_val: 1
      }
    }
  }
}
node {
  name: "ones_like"
  op: "Fill"
  input: "ones_like/Shape"
  input: "ones_like/Const"
  attr {
    key: "T"
    value {
      type: DT_INT32
    }
  }
  attr {
    key: "_output_shapes"
    value {
      list {
        shape {
          dim {
            size: 1
          }
        }
      }
    }
  }
}
node {
  name: "StridedSlice/begin"
  op: "Const"
  attr {
    key: "_output_shapes"
    value {
      list {
        shape {
          dim {
            size: 1
          }
        }
      }
    }
  }
  attr {
    key: "dtype"
    value {
      type: DT_INT32
    }
  }
  attr {
    key: "value"
    value {
      tensor {
        dtype: DT_INT32
        tensor_shape {
          dim {
            size: 1
          }
        }
        int_val: 0
      }
    }
  }
}
node {
  name: "StridedSlice/end"
  op: "Const"
  attr {
    key: "_output_shapes"
    value {
      list {
        shape {
          dim {
            size: 1
          }
        }
      }
    }
  }
  attr {
    key: "dtype"
    value {
      type: DT_INT32
    }
  }
  attr {
    key: "value"
    value {
      tensor {
        dtype: DT_INT32
        tensor_shape {
          dim {
            size: 1
          }
        }
        int_val: 1
      }
    }
  }
}
node {
  name: "StridedSlice"
  op: "StridedSlice"
  input: "DecodeRaw"
  input: "StridedSlice/begin"
  input: "StridedSlice/end"
  input: "ones_like"
  attr {
    key: "Index"
    value {
      type: DT_INT32
    }
  }
  attr {
    key: "T"
    value {
      type: DT_UINT8
    }
  }
  attr {
    key: "_output_shapes"
    value {
      list {
        shape {
          dim {
            size: -1
          }
        }
      }
    }
  }
  attr {
    key: "begin_mask"
    value {
      i: 0
    }
  }
  attr {
    key: "ellipsis_mask"
    value {
      i: 0
    }
  }
  attr {
    key: "end_mask"
    value {
      i: 0
    }
  }
  attr {
    key: "new_axis_mask"
    value {
      i: 0
    }
  }
  attr {
    key: "shrink_axis_mask"
    value {
      i: 0
    }
  }
}
node {
  name: "Cast"
  op: "Cast"
  input: "StridedSlice"
  attr {
    key: "DstT"
    value {
      type: DT_INT32
    }
  }
  attr {
    key: "SrcT"
    value {
      type: DT_UINT8
    }
  }
  attr {
    key: "_output_shapes"
    value {
      list {
        shape {
          dim {
            size: 1
          }
        }
      }
    }
  }
}
node {
  name: "ones_like_1/tensor"
  op: "Const"
  attr {
    key: "_output_shapes"
    value {
      list {
        shape {
          dim {
            size: 1
          }
        }
      }
    }
  }
  attr {
    key: "dtype"
    value {
      type: DT_INT32
    }
  }
  attr {
    key: "value"
    value {
      tensor {
        dtype: DT_INT32
        tensor_shape {
          dim {
            size: 1
          }
        }
        int_val: 1
      }
    }
  }
}
node {
  name: "ones_like_1/Shape"
  op: "Const"
  attr {
    key: "_output_shapes"
    value {
      list {
        shape {
          dim {
            size: 1
          }
        }
      }
    }
  }
  attr {
    key: "dtype"
    value {
      type: DT_INT32
    }
  }
  attr {
    key: "value"
    value {
      tensor {
        dtype: DT_INT32
        tensor_shape {
          dim {
            size: 1
          }
        }
        int_val: 1
      }
    }
  }
}
node {
  name: "ones_like_1/Const"
  op: "Const"
  attr {
    key: "_output_shapes"
    value {
      list {
        shape {
        }
      }
    }
  }
  attr {
    key: "dtype"
    value {
      type: DT_INT32
    }
  }
  attr {
    key: "value"
    value {
      tensor {
        dtype: DT_INT32
        tensor_shape {
        }
        int_val: 1
      }
    }
  }
}
node {
  name: "ones_like_1"
  op: "Fill"
  input: "ones_like_1/Shape"
  input: "ones_like_1/Const"
  attr {
    key: "T"
    value {
      type: DT_INT32
    }
  }
  attr {
    key: "_output_shapes"
    value {
      list {
        shape {
          dim {
            size: 1
          }
        }
      }
    }
  }
}
node {
  name: "StridedSlice_1/begin"
  op: "Const"
  attr {
    key: "_output_shapes"
    value {
      list {
        shape {
          dim {
            size: 1
          }
        }
      }
    }
  }
  attr {
    key: "dtype"
    value {
      type: DT_INT32
    }
  }
  attr {
    key: "value"
    value {
      tensor {
        dtype: DT_INT32
        tensor_shape {
          dim {
            size: 1
          }
        }
        int_val: 1
      }
    }
  }
}
node {
  name: "StridedSlice_1/end"
  op: "Const"
  attr {
    key: "_output_shapes"
    value {
      list {
        shape {
          dim {
            size: 1
          }
        }
      }
    }
  }
  attr {
    key: "dtype"
    value {
      type: DT_INT32
    }
  }
  attr {
    key: "value"
    value {
      tensor {
        dtype: DT_INT32
        tensor_shape {
          dim {
            size: 1
          }
        }
        int_val: 921601
      }
    }
  }
}
node {
  name: "StridedSlice_1"
  op: "StridedSlice"
  input: "DecodeRaw"
  input: "StridedSlice_1/begin"
  input: "StridedSlice_1/end"
  input: "ones_like_1"
  attr {
    key: "Index"
    value {
      type: DT_INT32
    }
  }
  attr {
    key: "T"
    value {
      type: DT_UINT8
    }
  }
  attr {
    key: "_output_shapes"
    value {
      list {
        shape {
          dim {
            size: -1
          }
        }
      }
    }
  }
  attr {
    key: "begin_mask"
    value {
      i: 0
    }
  }
  attr {
    key: "ellipsis_mask"
    value {
      i: 0
    }
  }
  attr {
    key: "end_mask"
    value {
      i: 0
    }
  }
  attr {
    key: "new_axis_mask"
    value {
      i: 0
    }
  }
  attr {
    key: "shrink_axis_mask"
    value {
      i: 0
    }
  }
}
node {
  name: "Reshape/shape"
  op: "Const"
  attr {
    key: "_output_shapes"
    value {
      list {
        shape {
          dim {
            size: 3
          }
        }
      }
    }
  }
  attr {
    key: "dtype"
    value {
      type: DT_INT32
    }
  }
  attr {
    key: "value"
    value {
      tensor {
        dtype: DT_INT32
        tensor_shape {
          dim {
            size: 3
          }
        }
        tensor_content: "\003\000\000\000\340\001\000\000\200\002\000\000"
      }
    }
  }
}
node {
  name: "Reshape"
  op: "Reshape"
  input: "StridedSlice_1"
  input: "Reshape/shape"
  attr {
    key: "T"
    value {
      type: DT_UINT8
    }
  }
  attr {
    key: "Tshape"
    value {
      type: DT_INT32
    }
  }
  attr {
    key: "_output_shapes"
    value {
      list {
        shape {
          dim {
            size: 3
          }
          dim {
            size: 480
          }
          dim {
            size: 640
          }
        }
      }
    }
  }
}
node {
  name: "transpose/perm"
  op: "Const"
  attr {
    key: "_output_shapes"
    value {
      list {
        shape {
          dim {
            size: 3
          }
        }
      }
    }
  }
  attr {
    key: "dtype"
    value {
      type: DT_INT32
    }
  }
  attr {
    key: "value"
    value {
      tensor {
        dtype: DT_INT32
        tensor_shape {
          dim {
            size: 3
          }
        }
        tensor_content: "\001\000\000\000\002\000\000\000\000\000\000\000"
      }
    }
  }
}
node {
  name: "transpose"
  op: "Transpose"
  input: "Reshape"
  input: "transpose/perm"
  attr {
    key: "T"
    value {
      type: DT_UINT8
    }
  }
  attr {
    key: "Tperm"
    value {
      type: DT_INT32
    }
  }
  attr {
    key: "_output_shapes"
    value {
      list {
        shape {
          dim {
            size: 480
          }
          dim {
            size: 640
          }
          dim {
            size: 3
          }
        }
      }
    }
  }
}
node {
  name: "Cast_1"
  op: "Cast"
  input: "transpose"
  attr {
    key: "DstT"
    value {
      type: DT_FLOAT
    }
  }
  attr {
    key: "SrcT"
    value {
      type: DT_UINT8
    }
  }
  attr {
    key: "_output_shapes"
    value {
      list {
        shape {
          dim {
            size: 480
          }
          dim {
            size: 640
          }
          dim {
            size: 3
          }
        }
      }
    }
  }
}
node {
  name: "data_augmentation/random_crop/size"
  op: "Const"
  attr {
    key: "_output_shapes"
    value {
      list {
        shape {
          dim {
            size: 3
          }
        }
      }
    }
  }
  attr {
    key: "dtype"
    value {
      type: DT_INT32
    }
  }
  attr {
    key: "value"
    value {
      tensor {
        dtype: DT_INT32
        tensor_shape {
          dim {
            size: 3
          }
        }
        tensor_content: "\030\000\000\000\030\000\000\000\003\000\000\000"
      }
    }
  }
}
node {
  name: "data_augmentation/random_crop/Shape"
  op: "Const"
  attr {
    key: "_output_shapes"
    value {
      list {
        shape {
          dim {
            size: 3
          }
        }
      }
    }
  }
  attr {
    key: "dtype"
    value {
      type: DT_INT32
    }
  }
  attr {
    key: "value"
    value {
      tensor {
        dtype: DT_INT32
        tensor_shape {
          dim {
            size: 3
          }
        }
        tensor_content: "\340\001\000\000\200\002\000\000\003\000\000\000"
      }
    }
  }
}
node {
  name: "data_augmentation/random_crop/GreaterEqual"
  op: "GreaterEqual"
  input: "data_augmentation/random_crop/Shape"
  input: "data_augmentation/random_crop/size"
  attr {
    key: "T"
    value {
      type: DT_INT32
    }
  }
  attr {
    key: "_output_shapes"
    value {
      list {
        shape {
          dim {
            size: 3
          }
        }
      }
    }
  }
}
node {
  name: "data_augmentation/random_crop/Const"
  op: "Const"
  attr {
    key: "_output_shapes"
    value {
      list {
        shape {
          dim {
            size: 1
          }
        }
      }
    }
  }
  attr {
    key: "dtype"
    value {
      type: DT_INT32
    }
  }
  attr {
    key: "value"
    value {
      tensor {
        dtype: DT_INT32
        tensor_shape {
          dim {
            size: 1
          }
        }
        int_val: 0
      }
    }
  }
}
node {
  name: "data_augmentation/random_crop/All"
  op: "All"
  input: "data_augmentation/random_crop/GreaterEqual"
  input: "data_augmentation/random_crop/Const"
  attr {
    key: "Tidx"
    value {
      type: DT_INT32
    }
  }
  attr {
    key: "_output_shapes"
    value {
      list {
        shape {
        }
      }
    }
  }
  attr {
    key: "keep_dims"
    value {
      b: false
    }
  }
}
node {
  name: "data_augmentation/random_crop/Assert/Const"
  op: "Const"
  attr {
    key: "_output_shapes"
    value {
      list {
        shape {
        }
      }
    }
  }
  attr {
    key: "dtype"
    value {
      type: DT_STRING
    }
  }
  attr {
    key: "value"
    value {
      tensor {
        dtype: DT_STRING
        tensor_shape {
        }
        string_val: "Need value.shape >= size, got "
      }
    }
  }
}
node {
  name: "data_augmentation/random_crop/Assert/Assert/data_0"
  op: "Const"
  attr {
    key: "_output_shapes"
    value {
      list {
        shape {
        }
      }
    }
  }
  attr {
    key: "dtype"
    value {
      type: DT_STRING
    }
  }
  attr {
    key: "value"
    value {
      tensor {
        dtype: DT_STRING
        tensor_shape {
        }
        string_val: "Need value.shape >= size, got "
      }
    }
  }
}
node {
  name: "data_augmentation/random_crop/Assert/Assert"
  op: "Assert"
  input: "data_augmentation/random_crop/All"
  input: "data_augmentation/random_crop/Assert/Assert/data_0"
  input: "data_augmentation/random_crop/Shape"
  input: "data_augmentation/random_crop/size"
  attr {
    key: "T"
    value {
      list {
        type: DT_STRING
        type: DT_INT32
        type: DT_INT32
      }
    }
  }
  attr {
    key: "summarize"
    value {
      i: 1000
    }
  }
}
node {
  name: "data_augmentation/random_crop/control_dependency"
  op: "Identity"
  input: "data_augmentation/random_crop/Shape"
  input: "^data_augmentation/random_crop/Assert/Assert"
  attr {
    key: "T"
    value {
      type: DT_INT32
    }
  }
  attr {
    key: "_class"
    value {
      list {
        s: "loc:@data_augmentation/random_crop/Shape"
      }
    }
  }
  attr {
    key: "_output_shapes"
    value {
      list {
        shape {
          dim {
            size: 3
          }
        }
      }
    }
  }
}
node {
  name: "data_augmentation/random_crop/sub"
  op: "Sub"
  input: "data_augmentation/random_crop/control_dependency"
  input: "data_augmentation/random_crop/size"
  attr {
    key: "T"
    value {
      type: DT_INT32
    }
  }
  attr {
    key: "_output_shapes"
    value {
      list {
        shape {
          dim {
            size: 3
          }
        }
      }
    }
  }
}
node {
  name: "data_augmentation/random_crop/add/y"
  op: "Const"
  attr {
    key: "_output_shapes"
    value {
      list {
        shape {
        }
      }
    }
  }
  attr {
    key: "dtype"
    value {
      type: DT_INT32
    }
  }
  attr {
    key: "value"
    value {
      tensor {
        dtype: DT_INT32
        tensor_shape {
        }
        int_val: 1
      }
    }
  }
}
node {
  name: "data_augmentation/random_crop/add"
  op: "Add"
  input: "data_augmentation/random_crop/sub"
  input: "data_augmentation/random_crop/add/y"
  attr {
    key: "T"
    value {
      type: DT_INT32
    }
  }
  attr {
    key: "_output_shapes"
    value {
      list {
        shape {
          dim {
            size: 3
          }
        }
      }
    }
  }
}
node {
  name: "data_augmentation/random_crop/Shape_1"
  op: "Const"
  attr {
    key: "_output_shapes"
    value {
      list {
        shape {
          dim {
            size: 1
          }
        }
      }
    }
  }
  attr {
    key: "dtype"
    value {
      type: DT_INT32
    }
  }
  attr {
    key: "value"
    value {
      tensor {
        dtype: DT_INT32
        tensor_shape {
          dim {
            size: 1
          }
        }
        int_val: 3
      }
    }
  }
}
node {
  name: "data_augmentation/random_crop/random_uniform/min"
  op: "Const"
  attr {
    key: "_output_shapes"
    value {
      list {
        shape {
        }
      }
    }
  }
  attr {
    key: "dtype"
    value {
      type: DT_INT32
    }
  }
  attr {
    key: "value"
    value {
      tensor {
        dtype: DT_INT32
        tensor_shape {
        }
        int_val: 0
      }
    }
  }
}
node {
  name: "data_augmentation/random_crop/random_uniform/max"
  op: "Const"
  attr {
    key: "_output_shapes"
    value {
      list {
        shape {
        }
      }
    }
  }
  attr {
    key: "dtype"
    value {
      type: DT_INT32
    }
  }
  attr {
    key: "value"
    value {
      tensor {
        dtype: DT_INT32
        tensor_shape {
        }
        int_val: 2147483647
      }
    }
  }
}
node {
  name: "data_augmentation/random_crop/random_uniform"
  op: "RandomUniformInt"
  input: "data_augmentation/random_crop/Shape_1"
  input: "data_augmentation/random_crop/random_uniform/min"
  input: "data_augmentation/random_crop/random_uniform/max"
  attr {
    key: "T"
    value {
      type: DT_INT32
    }
  }
  attr {
    key: "Tout"
    value {
      type: DT_INT32
    }
  }
  attr {
    key: "_output_shapes"
    value {
      list {
        shape {
          dim {
            size: 3
          }
        }
      }
    }
  }
  attr {
    key: "seed"
    value {
      i: 0
    }
  }
  attr {
    key: "seed2"
    value {
      i: 0
    }
  }
}
node {
  name: "data_augmentation/random_crop/mod"
  op: "FloorMod"
  input: "data_augmentation/random_crop/random_uniform"
  input: "data_augmentation/random_crop/add"
  attr {
    key: "T"
    value {
      type: DT_INT32
    }
  }
  attr {
    key: "_output_shapes"
    value {
      list {
        shape {
          dim {
            size: 3
          }
        }
      }
    }
  }
}
node {
  name: "data_augmentation/random_crop"
  op: "Slice"
  input: "Cast_1"
  input: "data_augmentation/random_crop/mod"
  input: "data_augmentation/random_crop/size"
  attr {
    key: "Index"
    value {
      type: DT_INT32
    }
  }
  attr {
    key: "T"
    value {
      type: DT_FLOAT
    }
  }
  attr {
    key: "_output_shapes"
    value {
      list {
        shape {
          dim {
            size: 24
          }
          dim {
            size: 24
          }
          dim {
            size: 3
          }
        }
      }
    }
  }
}
node {
  name: "data_augmentation/control_dependency"
  op: "Identity"
  input: "data_augmentation/random_crop"
  attr {
    key: "T"
    value {
      type: DT_FLOAT
    }
  }
  attr {
    key: "_class"
    value {
      list {
        s: "loc:@data_augmentation/random_crop"
      }
    }
  }
  attr {
    key: "_output_shapes"
    value {
      list {
        shape {
          dim {
            size: 24
          }
          dim {
            size: 24
          }
          dim {
            size: 3
          }
        }
      }
    }
  }
}
node {
  name: "data_augmentation/random_uniform/shape"
  op: "Const"
  attr {
    key: "_output_shapes"
    value {
      list {
        shape {
          dim {
          }
        }
      }
    }
  }
  attr {
    key: "dtype"
    value {
      type: DT_INT32
    }
  }
  attr {
    key: "value"
    value {
      tensor {
        dtype: DT_INT32
        tensor_shape {
          dim {
          }
        }
      }
    }
  }
}
node {
  name: "data_augmentation/random_uniform/min"
  op: "Const"
  attr {
    key: "_output_shapes"
    value {
      list {
        shape {
        }
      }
    }
  }
  attr {
    key: "dtype"
    value {
      type: DT_FLOAT
    }
  }
  attr {
    key: "value"
    value {
      tensor {
        dtype: DT_FLOAT
        tensor_shape {
        }
        float_val: 0.0
      }
    }
  }
}
node {
  name: "data_augmentation/random_uniform/max"
  op: "Const"
  attr {
    key: "_output_shapes"
    value {
      list {
        shape {
        }
      }
    }
  }
  attr {
    key: "dtype"
    value {
      type: DT_FLOAT
    }
  }
  attr {
    key: "value"
    value {
      tensor {
        dtype: DT_FLOAT
        tensor_shape {
        }
        float_val: 1.0
      }
    }
  }
}
node {
  name: "data_augmentation/random_uniform/RandomUniform"
  op: "RandomUniform"
  input: "data_augmentation/random_uniform/shape"
  attr {
    key: "T"
    value {
      type: DT_INT32
    }
  }
  attr {
    key: "_output_shapes"
    value {
      list {
        shape {
        }
      }
    }
  }
  attr {
    key: "dtype"
    value {
      type: DT_FLOAT
    }
  }
  attr {
    key: "seed"
    value {
      i: 0
    }
  }
  attr {
    key: "seed2"
    value {
      i: 0
    }
  }
}
node {
  name: "data_augmentation/random_uniform/sub"
  op: "Sub"
  input: "data_augmentation/random_uniform/max"
  input: "data_augmentation/random_uniform/min"
  attr {
    key: "T"
    value {
      type: DT_FLOAT
    }
  }
  attr {
    key: "_output_shapes"
    value {
      list {
        shape {
        }
      }
    }
  }
}
node {
  name: "data_augmentation/random_uniform/mul"
  op: "Mul"
  input: "data_augmentation/random_uniform/RandomUniform"
  input: "data_augmentation/random_uniform/sub"
  attr {
    key: "T"
    value {
      type: DT_FLOAT
    }
  }
  attr {
    key: "_output_shapes"
    value {
      list {
        shape {
        }
      }
    }
  }
}
node {
  name: "data_augmentation/random_uniform"
  op: "Add"
  input: "data_augmentation/random_uniform/mul"
  input: "data_augmentation/random_uniform/min"
  attr {
    key: "T"
    value {
      type: DT_FLOAT
    }
  }
  attr {
    key: "_output_shapes"
    value {
      list {
        shape {
        }
      }
    }
  }
}
node {
  name: "data_augmentation/Less/y"
  op: "Const"
  attr {
    key: "_output_shapes"
    value {
      list {
        shape {
        }
      }
    }
  }
  attr {
    key: "dtype"
    value {
      type: DT_FLOAT
    }
  }
  attr {
    key: "value"
    value {
      tensor {
        dtype: DT_FLOAT
        tensor_shape {
        }
        float_val: 0.5
      }
    }
  }
}
node {
  name: "data_augmentation/Less"
  op: "Less"
  input: "data_augmentation/random_uniform"
  input: "data_augmentation/Less/y"
  attr {
    key: "T"
    value {
      type: DT_FLOAT
    }
  }
  attr {
    key: "_output_shapes"
    value {
      list {
        shape {
        }
      }
    }
  }
}
node {
  name: "data_augmentation/cond/Switch"
  op: "Switch"
  input: "data_augmentation/Less"
  input: "data_augmentation/Less"
  attr {
    key: "T"
    value {
      type: DT_BOOL
    }
  }
  attr {
    key: "_output_shapes"
    value {
      list {
        shape {
        }
        shape {
        }
      }
    }
  }
}
node {
  name: "data_augmentation/cond/switch_t"
  op: "Identity"
  input: "data_augmentation/cond/Switch:1"
  attr {
    key: "T"
    value {
      type: DT_BOOL
    }
  }
  attr {
    key: "_output_shapes"
    value {
      list {
        shape {
        }
      }
    }
  }
}
node {
  name: "data_augmentation/cond/switch_f"
  op: "Identity"
  input: "data_augmentation/cond/Switch"
  attr {
    key: "T"
    value {
      type: DT_BOOL
    }
  }
  attr {
    key: "_output_shapes"
    value {
      list {
        shape {
        }
      }
    }
  }
}
node {
  name: "data_augmentation/cond/pred_id"
  op: "Identity"
  input: "data_augmentation/Less"
  attr {
    key: "T"
    value {
      type: DT_BOOL
    }
  }
  attr {
    key: "_output_shapes"
    value {
      list {
        shape {
        }
      }
    }
  }
}
node {
  name: "data_augmentation/cond/ReverseV2/axis"
  op: "Const"
  input: "^data_augmentation/cond/switch_t"
  attr {
    key: "_output_shapes"
    value {
      list {
        shape {
          dim {
            size: 1
          }
        }
      }
    }
  }
  attr {
    key: "dtype"
    value {
      type: DT_INT32
    }
  }
  attr {
    key: "value"
    value {
      tensor {
        dtype: DT_INT32
        tensor_shape {
          dim {
            size: 1
          }
        }
        int_val: 1
      }
    }
  }
}
node {
  name: "data_augmentation/cond/ReverseV2/Switch"
  op: "Switch"
  input: "data_augmentation/control_dependency"
  input: "data_augmentation/cond/pred_id"
  attr {
    key: "T"
    value {
      type: DT_FLOAT
    }
  }
  attr {
    key: "_class"
    value {
      list {
        s: "loc:@data_augmentation/random_crop"
      }
    }
  }
  attr {
    key: "_output_shapes"
    value {
      list {
        shape {
          dim {
            size: 24
          }
          dim {
            size: 24
          }
          dim {
            size: 3
          }
        }
        shape {
          dim {
            size: 24
          }
          dim {
            size: 24
          }
          dim {
            size: 3
          }
        }
      }
    }
  }
}
node {
  name: "data_augmentation/cond/ReverseV2"
  op: "ReverseV2"
  input: "data_augmentation/cond/ReverseV2/Switch:1"
  input: "data_augmentation/cond/ReverseV2/axis"
  attr {
    key: "T"
    value {
      type: DT_FLOAT
    }
  }
  attr {
    key: "Tidx"
    value {
      type: DT_INT32
    }
  }
  attr {
    key: "_output_shapes"
    value {
      list {
        shape {
          dim {
            size: 24
          }
          dim {
            size: 24
          }
          dim {
            size: 3
          }
        }
      }
    }
  }
}
node {
  name: "data_augmentation/cond/Switch_1"
  op: "Switch"
  input: "data_augmentation/control_dependency"
  input: "data_augmentation/cond/pred_id"
  attr {
    key: "T"
    value {
      type: DT_FLOAT
    }
  }
  attr {
    key: "_class"
    value {
      list {
        s: "loc:@data_augmentation/random_crop"
      }
    }
  }
  attr {
    key: "_output_shapes"
    value {
      list {
        shape {
          dim {
            size: 24
          }
          dim {
            size: 24
          }
          dim {
            size: 3
          }
        }
        shape {
          dim {
            size: 24
          }
          dim {
            size: 24
          }
          dim {
            size: 3
          }
        }
      }
    }
  }
}
node {
  name: "data_augmentation/cond/Merge"
  op: "Merge"
  input: "data_augmentation/cond/Switch_1"
  input: "data_augmentation/cond/ReverseV2"
  attr {
    key: "N"
    value {
      i: 2
    }
  }
  attr {
    key: "T"
    value {
      type: DT_FLOAT
    }
  }
  attr {
    key: "_output_shapes"
    value {
      list {
        shape {
          dim {
            size: 24
          }
          dim {
            size: 24
          }
          dim {
            size: 3
          }
        }
        shape {
        }
      }
    }
  }
}
node {
  name: "data_augmentation/random_uniform_1/shape"
  op: "Const"
  attr {
    key: "_output_shapes"
    value {
      list {
        shape {
          dim {
          }
        }
      }
    }
  }
  attr {
    key: "dtype"
    value {
      type: DT_INT32
    }
  }
  attr {
    key: "value"
    value {
      tensor {
        dtype: DT_INT32
        tensor_shape {
          dim {
          }
        }
      }
    }
  }
}
node {
  name: "data_augmentation/random_uniform_1/min"
  op: "Const"
  attr {
    key: "_output_shapes"
    value {
      list {
        shape {
        }
      }
    }
  }
  attr {
    key: "dtype"
    value {
      type: DT_FLOAT
    }
  }
  attr {
    key: "value"
    value {
      tensor {
        dtype: DT_FLOAT
        tensor_shape {
        }
        float_val: -63.0
      }
    }
  }
}
node {
  name: "data_augmentation/random_uniform_1/max"
  op: "Const"
  attr {
    key: "_output_shapes"
    value {
      list {
        shape {
        }
      }
    }
  }
  attr {
    key: "dtype"
    value {
      type: DT_FLOAT
    }
  }
  attr {
    key: "value"
    value {
      tensor {
        dtype: DT_FLOAT
        tensor_shape {
        }
        float_val: 63.0
      }
    }
  }
}
node {
  name: "data_augmentation/random_uniform_1/RandomUniform"
  op: "RandomUniform"
  input: "data_augmentation/random_uniform_1/shape"
  attr {
    key: "T"
    value {
      type: DT_INT32
    }
  }
  attr {
    key: "_output_shapes"
    value {
      list {
        shape {
        }
      }
    }
  }
  attr {
    key: "dtype"
    value {
      type: DT_FLOAT
    }
  }
  attr {
    key: "seed"
    value {
      i: 0
    }
  }
  attr {
    key: "seed2"
    value {
      i: 0
    }
  }
}
node {
  name: "data_augmentation/random_uniform_1/sub"
  op: "Sub"
  input: "data_augmentation/random_uniform_1/max"
  input: "data_augmentation/random_uniform_1/min"
  attr {
    key: "T"
    value {
      type: DT_FLOAT
    }
  }
  attr {
    key: "_output_shapes"
    value {
      list {
        shape {
        }
      }
    }
  }
}
node {
  name: "data_augmentation/random_uniform_1/mul"
  op: "Mul"
  input: "data_augmentation/random_uniform_1/RandomUniform"
  input: "data_augmentation/random_uniform_1/sub"
  attr {
    key: "T"
    value {
      type: DT_FLOAT
    }
  }
  attr {
    key: "_output_shapes"
    value {
      list {
        shape {
        }
      }
    }
  }
}
node {
  name: "data_augmentation/random_uniform_1"
  op: "Add"
  input: "data_augmentation/random_uniform_1/mul"
  input: "data_augmentation/random_uniform_1/min"
  attr {
    key: "T"
    value {
      type: DT_FLOAT
    }
  }
  attr {
    key: "_output_shapes"
    value {
      list {
        shape {
        }
      }
    }
  }
}
node {
  name: "data_augmentation/adjust_brightness/Identity"
  op: "Identity"
  input: "data_augmentation/cond/Merge"
  attr {
    key: "T"
    value {
      type: DT_FLOAT
    }
  }
  attr {
    key: "_output_shapes"
    value {
      list {
        shape {
          dim {
            size: 24
          }
          dim {
            size: 24
          }
          dim {
            size: 3
          }
        }
      }
    }
  }
}
node {
  name: "data_augmentation/adjust_brightness"
  op: "Add"
  input: "data_augmentation/adjust_brightness/Identity"
  input: "data_augmentation/random_uniform_1"
  attr {
    key: "T"
    value {
      type: DT_FLOAT
    }
  }
  attr {
    key: "_output_shapes"
    value {
      list {
        shape {
          dim {
            size: 24
          }
          dim {
            size: 24
          }
          dim {
            size: 3
          }
        }
      }
    }
  }
}
node {
  name: "data_augmentation/adjust_brightness/Identity_1"
  op: "Identity"
  input: "data_augmentation/adjust_brightness"
  attr {
    key: "T"
    value {
      type: DT_FLOAT
    }
  }
  attr {
    key: "_output_shapes"
    value {
      list {
        shape {
          dim {
            size: 24
          }
          dim {
            size: 24
          }
          dim {
            size: 3
          }
        }
      }
    }
  }
}
node {
  name: "data_augmentation/random_uniform_2/shape"
  op: "Const"
  attr {
    key: "_output_shapes"
    value {
      list {
        shape {
          dim {
          }
        }
      }
    }
  }
  attr {
    key: "dtype"
    value {
      type: DT_INT32
    }
  }
  attr {
    key: "value"
    value {
      tensor {
        dtype: DT_INT32
        tensor_shape {
          dim {
          }
        }
      }
    }
  }
}
node {
  name: "data_augmentation/random_uniform_2/min"
  op: "Const"
  attr {
    key: "_output_shapes"
    value {
      list {
        shape {
        }
      }
    }
  }
  attr {
    key: "dtype"
    value {
      type: DT_FLOAT
    }
  }
  attr {
    key: "value"
    value {
      tensor {
        dtype: DT_FLOAT
        tensor_shape {
        }
        float_val: 0.20000000298023224
      }
    }
  }
}
node {
  name: "data_augmentation/random_uniform_2/max"
  op: "Const"
  attr {
    key: "_output_shapes"
    value {
      list {
        shape {
        }
      }
    }
  }
  attr {
    key: "dtype"
    value {
      type: DT_FLOAT
    }
  }
  attr {
    key: "value"
    value {
      tensor {
        dtype: DT_FLOAT
        tensor_shape {
        }
        float_val: 1.7999999523162842
      }
    }
  }
}
node {
  name: "data_augmentation/random_uniform_2/RandomUniform"
  op: "RandomUniform"
  input: "data_augmentation/random_uniform_2/shape"
  attr {
    key: "T"
    value {
      type: DT_INT32
    }
  }
  attr {
    key: "_output_shapes"
    value {
      list {
        shape {
        }
      }
    }
  }
  attr {
    key: "dtype"
    value {
      type: DT_FLOAT
    }
  }
  attr {
    key: "seed"
    value {
      i: 0
    }
  }
  attr {
    key: "seed2"
    value {
      i: 0
    }
  }
}
node {
  name: "data_augmentation/random_uniform_2/sub"
  op: "Sub"
  input: "data_augmentation/random_uniform_2/max"
  input: "data_augmentation/random_uniform_2/min"
  attr {
    key: "T"
    value {
      type: DT_FLOAT
    }
  }
  attr {
    key: "_output_shapes"
    value {
      list {
        shape {
        }
      }
    }
  }
}
node {
  name: "data_augmentation/random_uniform_2/mul"
  op: "Mul"
  input: "data_augmentation/random_uniform_2/RandomUniform"
  input: "data_augmentation/random_uniform_2/sub"
  attr {
    key: "T"
    value {
      type: DT_FLOAT
    }
  }
  attr {
    key: "_output_shapes"
    value {
      list {
        shape {
        }
      }
    }
  }
}
node {
  name: "data_augmentation/random_uniform_2"
  op: "Add"
  input: "data_augmentation/random_uniform_2/mul"
  input: "data_augmentation/random_uniform_2/min"
  attr {
    key: "T"
    value {
      type: DT_FLOAT
    }
  }
  attr {
    key: "_output_shapes"
    value {
      list {
        shape {
        }
      }
    }
  }
}
node {
  name: "data_augmentation/adjust_contrast/Identity"
  op: "Identity"
  input: "data_augmentation/adjust_brightness/Identity_1"
  attr {
    key: "T"
    value {
      type: DT_FLOAT
    }
  }
  attr {
    key: "_output_shapes"
    value {
      list {
        shape {
          dim {
            size: 24
          }
          dim {
            size: 24
          }
          dim {
            size: 3
          }
        }
      }
    }
  }
}
node {
  name: "data_augmentation/adjust_contrast"
  op: "AdjustContrastv2"
  input: "data_augmentation/adjust_contrast/Identity"
  input: "data_augmentation/random_uniform_2"
  attr {
    key: "_output_shapes"
    value {
      list {
        shape {
          dim {
            size: 24
          }
          dim {
            size: 24
          }
          dim {
            size: 3
          }
        }
      }
    }
  }
}
node {
  name: "data_augmentation/adjust_contrast/Identity_1"
  op: "Identity"
  input: "data_augmentation/adjust_contrast"
  attr {
    key: "T"
    value {
      type: DT_FLOAT
    }
  }
  attr {
    key: "_output_shapes"
    value {
      list {
        shape {
          dim {
            size: 24
          }
          dim {
            size: 24
          }
          dim {
            size: 3
          }
        }
      }
    }
  }
}
node {
  name: "data_augmentation/control_dependency_1"
  op: "Identity"
  input: "data_augmentation/adjust_contrast/Identity_1"
  attr {
    key: "T"
    value {
      type: DT_FLOAT
    }
  }
  attr {
    key: "_class"
    value {
      list {
        s: "loc:@data_augmentation/adjust_contrast/Identity_1"
      }
    }
  }
  attr {
    key: "_output_shapes"
    value {
      list {
        shape {
          dim {
            size: 24
          }
          dim {
            size: 24
          }
          dim {
            size: 3
          }
        }
      }
    }
  }
}
node {
  name: "data_augmentation/Shape"
  op: "Const"
  attr {
    key: "_output_shapes"
    value {
      list {
        shape {
          dim {
            size: 3
          }
        }
      }
    }
  }
  attr {
    key: "dtype"
    value {
      type: DT_INT32
    }
  }
  attr {
    key: "value"
    value {
      tensor {
        dtype: DT_INT32
        tensor_shape {
          dim {
            size: 3
          }
        }
        tensor_content: "\030\000\000\000\030\000\000\000\003\000\000\000"
      }
    }
  }
}
node {
  name: "data_augmentation/Const"
  op: "Const"
  attr {
    key: "_output_shapes"
    value {
      list {
        shape {
          dim {
            size: 1
          }
        }
      }
    }
  }
  attr {
    key: "dtype"
    value {
      type: DT_INT32
    }
  }
  attr {
    key: "value"
    value {
      tensor {
        dtype: DT_INT32
        tensor_shape {
          dim {
            size: 1
          }
        }
        int_val: 0
      }
    }
  }
}
node {
  name: "data_augmentation/Prod"
  op: "Prod"
  input: "data_augmentation/Shape"
  input: "data_augmentation/Const"
  attr {
    key: "T"
    value {
      type: DT_INT32
    }
  }
  attr {
    key: "Tidx"
    value {
      type: DT_INT32
    }
  }
  attr {
    key: "_output_shapes"
    value {
      list {
        shape {
        }
      }
    }
  }
  attr {
    key: "keep_dims"
    value {
      b: false
    }
  }
}
node {
  name: "data_augmentation/Const_1"
  op: "Const"
  attr {
    key: "_output_shapes"
    value {
      list {
        shape {
          dim {
            size: 3
          }
        }
      }
    }
  }
  attr {
    key: "dtype"
    value {
      type: DT_INT32
    }
  }
  attr {
    key: "value"
    value {
      tensor {
        dtype: DT_INT32
        tensor_shape {
          dim {
            size: 3
          }
        }
        tensor_content: "\000\000\000\000\001\000\000\000\002\000\000\000"
      }
    }
  }
}
node {
  name: "data_augmentation/Mean"
  op: "Mean"
  input: "data_augmentation/control_dependency_1"
  input: "data_augmentation/Const_1"
  attr {
    key: "T"
    value {
      type: DT_FLOAT
    }
  }
  attr {
    key: "Tidx"
    value {
      type: DT_INT32
    }
  }
  attr {
    key: "_output_shapes"
    value {
      list {
        shape {
        }
      }
    }
  }
  attr {
    key: "keep_dims"
    value {
      b: false
    }
  }
}
node {
  name: "data_augmentation/Square"
  op: "Square"
  input: "data_augmentation/control_dependency_1"
  attr {
    key: "T"
    value {
      type: DT_FLOAT
    }
  }
  attr {
    key: "_output_shapes"
    value {
      list {
        shape {
          dim {
            size: 24
          }
          dim {
            size: 24
          }
          dim {
            size: 3
          }
        }
      }
    }
  }
}
node {
  name: "data_augmentation/Const_2"
  op: "Const"
  attr {
    key: "_output_shapes"
    value {
      list {
        shape {
          dim {
            size: 3
          }
        }
      }
    }
  }
  attr {
    key: "dtype"
    value {
      type: DT_INT32
    }
  }
  attr {
    key: "value"
    value {
      tensor {
        dtype: DT_INT32
        tensor_shape {
          dim {
            size: 3
          }
        }
        tensor_content: "\000\000\000\000\001\000\000\000\002\000\000\000"
      }
    }
  }
}
node {
  name: "data_augmentation/Mean_1"
  op: "Mean"
  input: "data_augmentation/Square"
  input: "data_augmentation/Const_2"
  attr {
    key: "T"
    value {
      type: DT_FLOAT
    }
  }
  attr {
    key: "Tidx"
    value {
      type: DT_INT32
    }
  }
  attr {
    key: "_output_shapes"
    value {
      list {
        shape {
        }
      }
    }
  }
  attr {
    key: "keep_dims"
    value {
      b: false
    }
  }
}
node {
  name: "data_augmentation/Square_1"
  op: "Square"
  input: "data_augmentation/Mean"
  attr {
    key: "T"
    value {
      type: DT_FLOAT
    }
  }
  attr {
    key: "_output_shapes"
    value {
      list {
        shape {
        }
      }
    }
  }
}
node {
  name: "data_augmentation/sub"
  op: "Sub"
  input: "data_augmentation/Mean_1"
  input: "data_augmentation/Square_1"
  attr {
    key: "T"
    value {
      type: DT_FLOAT
    }
  }
  attr {
    key: "_output_shapes"
    value {
      list {
        shape {
        }
      }
    }
  }
}
node {
  name: "data_augmentation/Relu"
  op: "Relu"
  input: "data_augmentation/sub"
  attr {
    key: "T"
    value {
      type: DT_FLOAT
    }
  }
  attr {
    key: "_output_shapes"
    value {
      list {
        shape {
        }
      }
    }
  }
}
node {
  name: "data_augmentation/Sqrt"
  op: "Sqrt"
  input: "data_augmentation/Relu"
  attr {
    key: "T"
    value {
      type: DT_FLOAT
    }
  }
  attr {
    key: "_output_shapes"
    value {
      list {
        shape {
        }
      }
    }
  }
}
node {
  name: "data_augmentation/Cast_1"
  op: "Cast"
  input: "data_augmentation/Prod"
  attr {
    key: "DstT"
    value {
      type: DT_FLOAT
    }
  }
  attr {
    key: "SrcT"
    value {
      type: DT_INT32
    }
  }
  attr {
    key: "_output_shapes"
    value {
      list {
        shape {
        }
      }
    }
  }
}
node {
  name: "data_augmentation/Rsqrt"
  op: "Rsqrt"
  input: "data_augmentation/Cast_1"
  attr {
    key: "T"
    value {
      type: DT_FLOAT
    }
  }
  attr {
    key: "_output_shapes"
    value {
      list {
        shape {
        }
      }
    }
  }
}
node {
  name: "data_augmentation/Maximum"
  op: "Maximum"
  input: "data_augmentation/Sqrt"
  input: "data_augmentation/Rsqrt"
  attr {
    key: "T"
    value {
      type: DT_FLOAT
    }
  }
  attr {
    key: "_output_shapes"
    value {
      list {
        shape {
        }
      }
    }
  }
}
node {
  name: "data_augmentation/Sub"
  op: "Sub"
  input: "data_augmentation/control_dependency_1"
  input: "data_augmentation/Mean"
  attr {
    key: "T"
    value {
      type: DT_FLOAT
    }
  }
  attr {
    key: "_output_shapes"
    value {
      list {
        shape {
          dim {
            size: 24
          }
          dim {
            size: 24
          }
          dim {
            size: 3
          }
        }
      }
    }
  }
}
node {
  name: "data_augmentation/div"
  op: "RealDiv"
  input: "data_augmentation/Sub"
  input: "data_augmentation/Maximum"
  attr {
    key: "T"
    value {
      type: DT_FLOAT
    }
  }
  attr {
    key: "_output_shapes"
    value {
      list {
        shape {
          dim {
            size: 24
          }
          dim {
            size: 24
          }
          dim {
            size: 3
          }
        }
      }
    }
  }
}
node {
  name: "shuffle_batch/Const"
  op: "Const"
  attr {
    key: "_output_shapes"
    value {
      list {
        shape {
        }
      }
    }
  }
  attr {
    key: "dtype"
    value {
      type: DT_BOOL
    }
  }
  attr {
    key: "value"
    value {
      tensor {
        dtype: DT_BOOL
        tensor_shape {
        }
        bool_val: true
      }
    }
  }
}
node {
  name: "shuffle_batch/random_shuffle_queue"
  op: "RandomShuffleQueueV2"
  attr {
    key: "_output_shapes"
    value {
      list {
        shape {
        }
      }
    }
  }
  attr {
    key: "capacity"
    value {
      i: 550
    }
  }
  attr {
    key: "component_types"
    value {
      list {
        type: DT_FLOAT
        type: DT_INT32
      }
    }
  }
  attr {
    key: "container"
    value {
      s: ""
    }
  }
  attr {
    key: "min_after_dequeue"
    value {
      i: 100
    }
  }
  attr {
    key: "seed"
    value {
      i: 0
    }
  }
  attr {
    key: "seed2"
    value {
      i: 0
    }
  }
  attr {
    key: "shapes"
    value {
      list {
        shape {
          dim {
            size: 24
          }
          dim {
            size: 24
          }
          dim {
            size: 3
          }
        }
        shape {
          dim {
            size: 1
          }
        }
      }
    }
  }
  attr {
    key: "shared_name"
    value {
      s: ""
    }
  }
}
node {
  name: "shuffle_batch/random_shuffle_queue_enqueue"
  op: "QueueEnqueueV2"
  input: "shuffle_batch/random_shuffle_queue"
  input: "data_augmentation/div"
  input: "Cast"
  attr {
    key: "Tcomponents"
    value {
      list {
        type: DT_FLOAT
        type: DT_INT32
      }
    }
  }
  attr {
    key: "timeout_ms"
    value {
      i: -1
    }
  }
}
node {
  name: "shuffle_batch/random_shuffle_queue_Close"
  op: "QueueCloseV2"
  input: "shuffle_batch/random_shuffle_queue"
  attr {
    key: "cancel_pending_enqueues"
    value {
      b: false
    }
  }
}
node {
  name: "shuffle_batch/random_shuffle_queue_Close_1"
  op: "QueueCloseV2"
  input: "shuffle_batch/random_shuffle_queue"
  attr {
    key: "cancel_pending_enqueues"
    value {
      b: true
    }
  }
}
node {
  name: "shuffle_batch/random_shuffle_queue_Size"
  op: "QueueSizeV2"
  input: "shuffle_batch/random_shuffle_queue"
  attr {
    key: "_output_shapes"
    value {
      list {
        shape {
        }
      }
    }
  }
}
node {
  name: "shuffle_batch/sub/y"
  op: "Const"
  attr {
    key: "_output_shapes"
    value {
      list {
        shape {
        }
      }
    }
  }
  attr {
    key: "dtype"
    value {
      type: DT_INT32
    }
  }
  attr {
    key: "value"
    value {
      tensor {
        dtype: DT_INT32
        tensor_shape {
        }
        int_val: 100
      }
    }
  }
}
node {
  name: "shuffle_batch/sub"
  op: "Sub"
  input: "shuffle_batch/random_shuffle_queue_Size"
  input: "shuffle_batch/sub/y"
  attr {
    key: "T"
    value {
      type: DT_INT32
    }
  }
  attr {
    key: "_output_shapes"
    value {
      list {
        shape {
        }
      }
    }
  }
}
node {
  name: "shuffle_batch/Maximum/x"
  op: "Const"
  attr {
    key: "_output_shapes"
    value {
      list {
        shape {
        }
      }
    }
  }
  attr {
    key: "dtype"
    value {
      type: DT_INT32
    }
  }
  attr {
    key: "value"
    value {
      tensor {
        dtype: DT_INT32
        tensor_shape {
        }
        int_val: 0
      }
    }
  }
}
node {
  name: "shuffle_batch/Maximum"
  op: "Maximum"
  input: "shuffle_batch/Maximum/x"
  input: "shuffle_batch/sub"
  attr {
    key: "T"
    value {
      type: DT_INT32
    }
  }
  attr {
    key: "_output_shapes"
    value {
      list {
        shape {
        }
      }
    }
  }
}
node {
  name: "shuffle_batch/Cast"
  op: "Cast"
  input: "shuffle_batch/Maximum"
  attr {
    key: "DstT"
    value {
      type: DT_FLOAT
    }
  }
  attr {
    key: "SrcT"
    value {
      type: DT_INT32
    }
  }
  attr {
    key: "_output_shapes"
    value {
      list {
        shape {
        }
      }
    }
  }
}
node {
  name: "shuffle_batch/mul/y"
  op: "Const"
  attr {
    key: "_output_shapes"
    value {
      list {
        shape {
        }
      }
    }
  }
  attr {
    key: "dtype"
    value {
      type: DT_FLOAT
    }
  }
  attr {
    key: "value"
    value {
      tensor {
        dtype: DT_FLOAT
        tensor_shape {
        }
        float_val: 0.002222222276031971
      }
    }
  }
}
node {
  name: "shuffle_batch/mul"
  op: "Mul"
  input: "shuffle_batch/Cast"
  input: "shuffle_batch/mul/y"
  attr {
    key: "T"
    value {
      type: DT_FLOAT
    }
  }
  attr {
    key: "_output_shapes"
    value {
      list {
        shape {
        }
      }
    }
  }
}
node {
  name: "shuffle_batch/fraction_over_100_of_450_full/tags"
  op: "Const"
  attr {
    key: "_output_shapes"
    value {
      list {
        shape {
        }
      }
    }
  }
  attr {
    key: "dtype"
    value {
      type: DT_STRING
    }
  }
  attr {
    key: "value"
    value {
      tensor {
        dtype: DT_STRING
        tensor_shape {
        }
        string_val: "shuffle_batch/fraction_over_100_of_450_full"
      }
    }
  }
}
node {
  name: "shuffle_batch/fraction_over_100_of_450_full"
  op: "ScalarSummary"
  input: "shuffle_batch/fraction_over_100_of_450_full/tags"
  input: "shuffle_batch/mul"
  attr {
    key: "T"
    value {
      type: DT_FLOAT
    }
  }
  attr {
    key: "_output_shapes"
    value {
      list {
        shape {
        }
      }
    }
  }
}
node {
  name: "shuffle_batch/n"
  op: "Const"
  attr {
    key: "_output_shapes"
    value {
      list {
        shape {
        }
      }
    }
  }
  attr {
    key: "dtype"
    value {
      type: DT_INT32
    }
  }
  attr {
    key: "value"
    value {
      tensor {
        dtype: DT_INT32
        tensor_shape {
        }
        int_val: 150
      }
    }
  }
}
node {
  name: "shuffle_batch"
  op: "QueueDequeueManyV2"
  input: "shuffle_batch/random_shuffle_queue"
  input: "shuffle_batch/n"
  attr {
    key: "_output_shapes"
    value {
      list {
        shape {
          dim {
            size: 150
          }
          dim {
            size: 24
          }
          dim {
            size: 24
          }
          dim {
            size: 3
          }
        }
        shape {
          dim {
            size: 150
          }
          dim {
            size: 1
          }
        }
      }
    }
  }
  attr {
    key: "component_types"
    value {
      list {
        type: DT_FLOAT
        type: DT_INT32
      }
    }
  }
  attr {
    key: "timeout_ms"
    value {
      i: -1
    }
  }
}
node {
  name: "image/tag"
  op: "Const"
  attr {
    key: "_output_shapes"
    value {
      list {
        shape {
        }
      }
    }
  }
  attr {
    key: "dtype"
    value {
      type: DT_STRING
    }
  }
  attr {
    key: "value"
    value {
      tensor {
        dtype: DT_STRING
        tensor_shape {
        }
        string_val: "image"
      }
    }
  }
}
node {
  name: "image"
  op: "ImageSummary"
  input: "image/tag"
  input: "shuffle_batch"
  attr {
    key: "T"
    value {
      type: DT_FLOAT
    }
  }
  attr {
    key: "_output_shapes"
    value {
      list {
        shape {
        }
      }
    }
  }
  attr {
    key: "bad_color"
    value {
      tensor {
        dtype: DT_UINT8
        tensor_shape {
          dim {
            size: 4
          }
        }
        int_val: 255
        int_val: 0
        int_val: 0
        int_val: 255
      }
    }
  }
  attr {
    key: "max_images"
    value {
      i: 3
    }
  }
}
node {
  name: "Reshape_1/shape"
  op: "Const"
  attr {
    key: "_output_shapes"
    value {
      list {
        shape {
          dim {
            size: 1
          }
        }
      }
    }
  }
  attr {
    key: "dtype"
    value {
      type: DT_INT32
    }
  }
  attr {
    key: "value"
    value {
      tensor {
        dtype: DT_INT32
        tensor_shape {
          dim {
            size: 1
          }
        }
        int_val: 150
      }
    }
  }
}
node {
  name: "Reshape_1"
  op: "Reshape"
  input: "shuffle_batch:1"
  input: "Reshape_1/shape"
  attr {
    key: "T"
    value {
      type: DT_INT32
    }
  }
  attr {
    key: "Tshape"
    value {
      type: DT_INT32
    }
  }
  attr {
    key: "_output_shapes"
    value {
      list {
        shape {
          dim {
            size: 150
          }
        }
      }
    }
  }
}
node {
  name: "conv1/weights/Initializer/truncated_normal/shape"
  op: "Const"
  attr {
    key: "_class"
    value {
      list {
        s: "loc:@conv1/weights"
      }
    }
  }
  attr {
    key: "_output_shapes"
    value {
      list {
        shape {
          dim {
            size: 4
          }
        }
      }
    }
  }
  attr {
    key: "dtype"
    value {
      type: DT_INT32
    }
  }
  attr {
    key: "value"
    value {
      tensor {
        dtype: DT_INT32
        tensor_shape {
          dim {
            size: 4
          }
        }
        tensor_content: "\005\000\000\000\005\000\000\000\003\000\000\000@\000\000\000"
      }
    }
  }
}
node {
  name: "conv1/weights/Initializer/truncated_normal/mean"
  op: "Const"
  attr {
    key: "_class"
    value {
      list {
        s: "loc:@conv1/weights"
      }
    }
  }
  attr {
    key: "_output_shapes"
    value {
      list {
        shape {
        }
      }
    }
  }
  attr {
    key: "dtype"
    value {
      type: DT_FLOAT
    }
  }
  attr {
    key: "value"
    value {
      tensor {
        dtype: DT_FLOAT
        tensor_shape {
        }
        float_val: 0.0
      }
    }
  }
}
node {
  name: "conv1/weights/Initializer/truncated_normal/stddev"
  op: "Const"
  attr {
    key: "_class"
    value {
      list {
        s: "loc:@conv1/weights"
      }
    }
  }
  attr {
    key: "_output_shapes"
    value {
      list {
        shape {
        }
      }
    }
  }
  attr {
    key: "dtype"
    value {
      type: DT_FLOAT
    }
  }
  attr {
    key: "value"
    value {
      tensor {
        dtype: DT_FLOAT
        tensor_shape {
        }
        float_val: 0.05000000074505806
      }
    }
  }
}
node {
  name: "conv1/weights/Initializer/truncated_normal/TruncatedNormal"
  op: "TruncatedNormal"
  input: "conv1/weights/Initializer/truncated_normal/shape"
  attr {
    key: "T"
    value {
      type: DT_INT32
    }
  }
  attr {
    key: "_class"
    value {
      list {
        s: "loc:@conv1/weights"
      }
    }
  }
  attr {
    key: "_output_shapes"
    value {
      list {
        shape {
          dim {
            size: 5
          }
          dim {
            size: 5
          }
          dim {
            size: 3
          }
          dim {
            size: 64
          }
        }
      }
    }
  }
  attr {
    key: "dtype"
    value {
      type: DT_FLOAT
    }
  }
  attr {
    key: "seed"
    value {
      i: 0
    }
  }
  attr {
    key: "seed2"
    value {
      i: 0
    }
  }
}
node {
  name: "conv1/weights/Initializer/truncated_normal/mul"
  op: "Mul"
  input: "conv1/weights/Initializer/truncated_normal/TruncatedNormal"
  input: "conv1/weights/Initializer/truncated_normal/stddev"
  attr {
    key: "T"
    value {
      type: DT_FLOAT
    }
  }
  attr {
    key: "_class"
    value {
      list {
        s: "loc:@conv1/weights"
      }
    }
  }
  attr {
    key: "_output_shapes"
    value {
      list {
        shape {
          dim {
            size: 5
          }
          dim {
            size: 5
          }
          dim {
            size: 3
          }
          dim {
            size: 64
          }
        }
      }
    }
  }
}
node {
  name: "conv1/weights/Initializer/truncated_normal"
  op: "Add"
  input: "conv1/weights/Initializer/truncated_normal/mul"
  input: "conv1/weights/Initializer/truncated_normal/mean"
  attr {
    key: "T"
    value {
      type: DT_FLOAT
    }
  }
  attr {
    key: "_class"
    value {
      list {
        s: "loc:@conv1/weights"
      }
    }
  }
  attr {
    key: "_output_shapes"
    value {
      list {
        shape {
          dim {
            size: 5
          }
          dim {
            size: 5
          }
          dim {
            size: 3
          }
          dim {
            size: 64
          }
        }
      }
    }
  }
}
node {
  name: "conv1/weights"
  op: "VariableV2"
  device: "/device:CPU:0"
  attr {
    key: "_class"
    value {
      list {
        s: "loc:@conv1/weights"
      }
    }
  }
  attr {
    key: "_output_shapes"
    value {
      list {
        shape {
          dim {
            size: 5
          }
          dim {
            size: 5
          }
          dim {
            size: 3
          }
          dim {
            size: 64
          }
        }
      }
    }
  }
  attr {
    key: "container"
    value {
      s: ""
    }
  }
  attr {
    key: "dtype"
    value {
      type: DT_FLOAT
    }
  }
  attr {
    key: "shape"
    value {
      shape {
        dim {
          size: 5
        }
        dim {
          size: 5
        }
        dim {
          size: 3
        }
        dim {
          size: 64
        }
      }
    }
  }
  attr {
    key: "shared_name"
    value {
      s: ""
    }
  }
}
node {
  name: "conv1/weights/Assign"
  op: "Assign"
  input: "conv1/weights"
  input: "conv1/weights/Initializer/truncated_normal"
  device: "/device:CPU:0"
  attr {
    key: "T"
    value {
      type: DT_FLOAT
    }
  }
  attr {
    key: "_class"
    value {
      list {
        s: "loc:@conv1/weights"
      }
    }
  }
  attr {
    key: "_output_shapes"
    value {
      list {
        shape {
          dim {
            size: 5
          }
          dim {
            size: 5
          }
          dim {
            size: 3
          }
          dim {
            size: 64
          }
        }
      }
    }
  }
  attr {
    key: "use_locking"
    value {
      b: true
    }
  }
  attr {
    key: "validate_shape"
    value {
      b: true
    }
  }
}
node {
  name: "conv1/weights/read"
  op: "Identity"
  input: "conv1/weights"
  device: "/device:CPU:0"
  attr {
    key: "T"
    value {
      type: DT_FLOAT
    }
  }
  attr {
…
  op: "Const"
  device: "/device:CPU:0"
  attr {
    key: "_output_shapes"
    value {
      list {
        shape {
        }
      }
    }
  }
  attr {
    key: "dtype"
    value {
      type: DT_INT32
    }
  }
  attr {
    key: "value"
    value {
      tensor {
        dtype: DT_INT32
        tensor_shape {
        }
        int_val: 1
      }
    }
  }
}
node {
  name: "save/ShardedFilename_1"
  op: "ShardedFilename"
  input: "save/StringJoin"
  input: "save/ShardedFilename_1/shard"
  input: "save/num_shards"
  device: "/device:CPU:0"
  attr {
    key: "_output_shapes"
    value {
      list {
        shape {
        }
      }
    }
  }
}
node {
  name: "save/SaveV2_1/tensor_names"
  op: "Const"
  device: "/device:CPU:0"
  attr {
    key: "_output_shapes"
    value {
      list {
        shape {
          dim {
            size: 16
          }
        }
      }
    }
  }
  attr {
    key: "dtype"
    value {
      type: DT_STRING
    }
  }
  attr {
    key: "value"
    value {
      tensor {
        dtype: DT_STRING
        tensor_shape {
          dim {
            size: 16
          }
        }
        string_val: "conv1/biases"
        string_val: "conv1/biases/ExponentialMovingAverage"
        string_val: "conv1/weights"
        string_val: "conv1/weights/ExponentialMovingAverage"
        string_val: "local3/biases"
        string_val: "local3/biases/ExponentialMovingAverage"
        string_val: "local3/weights"
        string_val: "local3/weights/ExponentialMovingAverage"
        string_val: "local4/biases"
        string_val: "local4/biases/ExponentialMovingAverage"
        string_val: "local4/weights"
        string_val: "local4/weights/ExponentialMovingAverage"
        string_val: "softmax_linear/biases"
        string_val: "softmax_linear/biases/ExponentialMovingAverage"
        string_val: "softmax_linear/weights"
        string_val: "softmax_linear/weights/ExponentialMovingAverage"
      }
    }
  }
}
node {
  name: "save/SaveV2_1/shape_and_slices"
  op: "Const"
  device: "/device:CPU:0"
  attr {
    key: "_output_shapes"
    value {
      list {
        shape {
          dim {
            size: 16
          }
        }
      }
    }
  }
  attr {
    key: "dtype"
    value {
      type: DT_STRING
    }
  }
  attr {
    key: "value"
    value {
      tensor {
        dtype: DT_STRING
        tensor_shape {
          dim {
            size: 16
          }
        }
        string_val: ""
        string_val: ""
        string_val: ""
        string_val: ""
        string_val: ""
        string_val: ""
        string_val: ""
        string_val: ""
        string_val: ""
        string_val: ""
        string_val: ""
        string_val: ""
        string_val: ""
        string_val: ""
        string_val: ""
        string_val: ""
      }
    }
  }
}
node {
  name: "save/SaveV2_1"
  op: "SaveV2"
  input: "save/ShardedFilename_1"
  input: "save/SaveV2_1/tensor_names"
  input: "save/SaveV2_1/shape_and_slices"
  input: "conv1/biases"
  input: "conv1/biases/ExponentialMovingAverage"
  input: "conv1/weights"
  input: "conv1/weights/ExponentialMovingAverage"
  input: "local3/biases"
  input: "local3/biases/ExponentialMovingAverage"
  input: "local3/weights"
  input: "local3/weights/ExponentialMovingAverage"
  input: "local4/biases"
  input: "local4/biases/ExponentialMovingAverage"
  input: "local4/weights"
  input: "local4/weights/ExponentialMovingAverage"
  input: "softmax_linear/biases"
  input: "softmax_linear/biases/ExponentialMovingAverage"
  input: "softmax_linear/weights"
  input: "softmax_linear/weights/ExponentialMovingAverage"
  device: "/device:CPU:0"
  attr {
    key: "dtypes"
    value {
      list {
        type: DT_FLOAT
        type: DT_FLOAT
        type: DT_FLOAT
        type: DT_FLOAT
        type: DT_FLOAT
        type: DT_FLOAT
        type: DT_FLOAT
        type: DT_FLOAT
        type: DT_FLOAT
        type: DT_FLOAT
        type: DT_FLOAT
        type: DT_FLOAT
        type: DT_FLOAT
        type: DT_FLOAT
        type: DT_FLOAT
        type: DT_FLOAT
      }
    }
  }
}
node {
  name: "save/control_dependency_1"
  op: "Identity"
  input: "save/ShardedFilename_1"
  input: "^save/SaveV2_1"
  device: "/device:CPU:0"
  attr {
    key: "T"
    value {
      type: DT_STRING
    }
  }
  attr {
    key: "_class"
    value {
      list {
        s: "loc:@save/ShardedFilename_1"
      }
    }
  }
  attr {
    key: "_output_shapes"
    value {
      list {
        shape {
        }
      }
    }
  }
}
node {
  name: "save/MergeV2Checkpoints/checkpoint_prefixes"
  op: "Pack"
  input: "save/ShardedFilename"
  input: "save/ShardedFilename_1"
  input: "^save/control_dependency"
  input: "^save/control_dependency_1"
  device: "/device:CPU:0"
  attr {
    key: "N"
    value {
      i: 2
    }
  }
  attr {
    key: "T"
    value {
      type: DT_STRING
    }
  }
  attr {
    key: "_output_shapes"
    value {
      list {
        shape {
          dim {
            size: 2
          }
        }
      }
    }
  }
  attr {
    key: "axis"
    value {
      i: 0
    }
  }
}
node {
  name: "save/MergeV2Checkpoints"
  op: "MergeV2Checkpoints"
  input: "save/MergeV2Checkpoints/checkpoint_prefixes"
  input: "save/Const"
  device: "/device:CPU:0"
  attr {
    key: "delete_old_dirs"
    value {
      b: true
    }
  }
}
node {
  name: "save/Identity"
  op: "Identity"
  input: "save/Const"
  input: "^save/control_dependency"
  input: "^save/control_dependency_1"
  input: "^save/MergeV2Checkpoints"
  device: "/device:CPU:0"
  attr {
    key: "T"
    value {
      type: DT_STRING
    }
  }
  attr {
    key: "_output_shapes"
    value {
      list {
        shape {
        }
      }
    }
  }
}
node {
  name: "save/RestoreV2/tensor_names"
  op: "Const"
  attr {
    key: "_output_shapes"
    value {
      list {
        shape {
          dim {
            size: 1
          }
        }
      }
    }
  }
  attr {
    key: "dtype"
    value {
      type: DT_STRING
    }
  }
  attr {
    key: "value"
    value {
      tensor {
        dtype: DT_STRING
        tensor_shape {
          dim {
            size: 1
          }
        }
        string_val: "cross_entropy/avg"
      }
    }
  }
}
node {
  name: "save/RestoreV2/shape_and_slices"
  op: "Const"
  attr {
    key: "_output_shapes"
    value {
      list {
        shape {
          dim {
            size: 1
          }
        }
      }
    }
  }
  attr {
    key: "dtype"
    value {
      type: DT_STRING
    }
  }
  attr {
    key: "value"
    value {
      tensor {
        dtype: DT_STRING
        tensor_shape {
          dim {
            size: 1
          }
        }
        string_val: ""
      }
    }
  }
}
node {
  name: "save/RestoreV2"
  op: "RestoreV2"
  input: "save/Const"
  input: "save/RestoreV2/tensor_names"
  input: "save/RestoreV2/shape_and_slices"
  attr {
    key: "_output_shapes"
    value {
      list {
        shape {
          unknown_rank: true
        }
      }
    }
  }
  attr {
    key: "dtypes"
    value {
      list {
        type: DT_FLOAT
      }
    }
  }
}
node {
  name: "save/Assign"
  op: "Assign"
  input: "cross_entropy/avg"
  input: "save/RestoreV2"
  attr {
    key: "T"
    value {
      type: DT_FLOAT
    }
  }
  attr {
    key: "_class"
    value {
      list {
        s: "loc:@cross_entropy/avg"
      }
    }
  }
  attr {
    key: "_output_shapes"
    value {
      list {
        shape {
        }
      }
    }
  }
  attr {
    key: "use_locking"
    value {
      b: true
    }
  }
  attr {
    key: "validate_shape"
    value {
      b: true
    }
  }
}
node {
  name: "save/RestoreV2_1/tensor_names"
  op: "Const"
  attr {
    key: "_output_shapes"
    value {
      list {
        shape {
          dim {
            size: 1
          }
        }
      }
    }
  }
  attr {
    key: "dtype"
    value {
      type: DT_STRING
    }
  }
  attr {
    key: "value"
    value {
      tensor {
        dtype: DT_STRING
        tensor_shape {
          dim {
            size: 1
          }
        }
        string_val: "global_step"
      }
    }
  }
}
node {
  name: "save/RestoreV2_1/shape_and_slices"
  op: "Const"
  attr {
    key: "_output_shapes"
    value {
      list {
        shape {
          dim {
            size: 1
          }
        }
      }
    }
  }
  attr {
    key: "dtype"
    value {
      type: DT_STRING
    }
  }
  attr {
    key: "value"
    value {
      tensor {
        dtype: DT_STRING
        tensor_shape {
          dim {
            size: 1
          }
        }
        string_val: ""
      }
    }
  }
}
node {
  name: "save/RestoreV2_1"
  op: "RestoreV2"
  input: "save/Const"
  input: "save/RestoreV2_1/tensor_names"
  input: "save/RestoreV2_1/shape_and_slices"
  attr {
    key: "_output_shapes"
    value {
      list {
        shape {
          unknown_rank: true
        }
      }
    }
  }
  attr {
    key: "dtypes"
    value {
      list {
        type: DT_INT64
      }
    }
  }
}
node {
  name: "save/Assign_1"
  op: "Assign"
  input: "global_step"
  input: "save/RestoreV2_1"
  attr {
    key: "T"
    value {
      type: DT_INT64
    }
  }
  attr {
    key: "_class"
    value {
      list {
        s: "loc:@global_step"
      }
    }
  }
  attr {
    key: "_output_shapes"
    value {
      list {
        shape {
        }
      }
    }
  }
  attr {
    key: "use_locking"
    value {
      b: true
    }
  }
  attr {
    key: "validate_shape"
    value {
      b: true
    }
  }
}
node {
  name: "save/RestoreV2_2/tensor_names"
  op: "Const"
  attr {
    key: "_output_shapes"
    value {
      list {
        shape {
          dim {
            size: 1
          }
        }
      }
    }
  }
  attr {
    key: "dtype"
    value {
      type: DT_STRING
    }
  }
  attr {
    key: "value"
    value {
      tensor {
        dtype: DT_STRING
        tensor_shape {
          dim {
            size: 1
          }
        }
        string_val: "local3/weight_loss/avg"
      }
    }
  }
}
node {
  name: "save/RestoreV2_2/shape_and_slices"
  op: "Const"
  attr {
    key: "_output_shapes"
    value {
      list {
        shape {
          dim {
            size: 1
          }
        }
      }
    }
  }
  attr {
    key: "dtype"
    value {
      type: DT_STRING
    }
  }
  attr {
    key: "value"
    value {
      tensor {
        dtype: DT_STRING
        tensor_shape {
          dim {
            size: 1
          }
        }
        string_val: ""
      }
    }
  }
}
node {
  name: "save/RestoreV2_2"
  op: "RestoreV2"
  input: "save/Const"
  input: "save/RestoreV2_2/tensor_names"
  input: "save/RestoreV2_2/shape_and_slices"
  attr {
    key: "_output_shapes"
    value {
      list {
        shape {
          unknown_rank: true
        }
      }
    }
  }
  attr {
    key: "dtypes"
    value {
      list {
        type: DT_FLOAT
      }
    }
  }
}
node {
  name: "save/Assign_2"
  op: "Assign"
  input: "local3/weight_loss/avg"
  input: "save/RestoreV2_2"
  attr {
    key: "T"
    value {
      type: DT_FLOAT
    }
  }
  attr {
    key: "_class"
    value {
      list {
        s: "loc:@local3/weight_loss/avg"
      }
    }
  }
  attr {
    key: "_output_shapes"
    value {
      list {
        shape {
        }
      }
    }
  }
  attr {
    key: "use_locking"
    value {
      b: true
    }
  }
  attr {
    key: "validate_shape"
    value {
      b: true
    }
  }
}
node {
  name: "save/RestoreV2_3/tensor_names"
  op: "Const"
  attr {
    key: "_output_shapes"
    value {
      list {
        shape {
          dim {
            size: 1
          }
        }
      }
    }
  }
  attr {
    key: "dtype"
    value {
      type: DT_STRING
    }
  }
  attr {
    key: "value"
    value {
      tensor {
        dtype: DT_STRING
        tensor_shape {
          dim {
            size: 1
          }
        }
        string_val: "local4/weight_loss/avg"
      }
    }
  }
}
node {
  name: "save/RestoreV2_3/shape_and_slices"
  op: "Const"
  attr {
    key: "_output_shapes"
    value {
      list {
        shape {
          dim {
            size: 1
          }
        }
      }
    }
  }
  attr {
    key: "dtype"
    value {
      type: DT_STRING
    }
  }
  attr {
    key: "value"
    value {
      tensor {
        dtype: DT_STRING
        tensor_shape {
          dim {
            size: 1
          }
        }
        string_val: ""
      }
    }
  }
}
node {
  name: "save/RestoreV2_3"
  op: "RestoreV2"
  input: "save/Const"
  input: "save/RestoreV2_3/tensor_names"
  input: "save/RestoreV2_3/shape_and_slices"
  attr {
    key: "_output_shapes"
    value {
      list {
        shape {
          unknown_rank: true
        }
      }
    }
  }
  attr {
    key: "dtypes"
    value {
      list {
        type: DT_FLOAT
      }
    }
  }
}
node {
  name: "save/Assign_3"
  op: "Assign"
  input: "local4/weight_loss/avg"
  input: "save/RestoreV2_3"
  attr {
    key: "T"
    value {
      type: DT_FLOAT
    }
  }
  attr {
    key: "_class"
    value {
      list {
        s: "loc:@local4/weight_loss/avg"
      }
    }
  }
  attr {
    key: "_output_shapes"
    value {
      list {
        shape {
        }
      }
    }
  }
  attr {
    key: "use_locking"
    value {
      b: true
    }
  }
  attr {
    key: "validate_shape"
    value {
      b: true
    }
  }
}
node {
  name: "save/RestoreV2_4/tensor_names"
  op: "Const"
  attr {
    key: "_output_shapes"
    value {
      list {
        shape {
          dim {
            size: 1
          }
        }
      }
    }
  }
  attr {
    key: "dtype"
    value {
      type: DT_STRING
    }
  }
  attr {
    key: "value"
    value {
      tensor {
        dtype: DT_STRING
        tensor_shape {
          dim {
            size: 1
          }
        }
        string_val: "total_loss/avg"
      }
    }
  }
}
node {
  name: "save/RestoreV2_4/shape_and_slices"
  op: "Const"
  attr {
    key: "_output_shapes"
    value {
      list {
        shape {
          dim {
            size: 1
          }
        }
      }
    }
  }
  attr {
    key: "dtype"
    value {
      type: DT_STRING
    }
  }
  attr {
    key: "value"
    value {
      tensor {
        dtype: DT_STRING
        tensor_shape {
          dim {
            size: 1
          }
        }
        string_val: ""
      }
    }
  }
}
node {
  name: "save/RestoreV2_4"
  op: "RestoreV2"
  input: "save/Const"
  input: "save/RestoreV2_4/tensor_names"
  input: "save/RestoreV2_4/shape_and_slices"
  attr {
    key: "_output_shapes"
    value {
      list {
        shape {
          unknown_rank: true
        }
      }
    }
  }
  attr {
    key: "dtypes"
    value {
      list {
        type: DT_FLOAT
      }
    }
  }
}
node {
  name: "save/Assign_4"
  op: "Assign"
  input: "total_loss/avg"
  input: "save/RestoreV2_4"
  attr {
    key: "T"
    value {
      type: DT_FLOAT
    }
  }
  attr {
    key: "_class"
    value {
      list {
        s: "loc:@total_loss/avg"
      }
    }
  }
  attr {
    key: "_output_shapes"
    value {
      list {
        shape {
        }
      }
    }
  }
  attr {
    key: "use_locking"
    value {
      b: true
    }
  }
  attr {
    key: "validate_shape"
    value {
      b: true
    }
  }
}
node {
  name: "save/restore_shard"
  op: "NoOp"
  input: "^save/Assign"
  input: "^save/Assign_1"
  input: "^save/Assign_2"
  input: "^save/Assign_3"
  input: "^save/Assign_4"
}
node {
  name: "save/RestoreV2_5/tensor_names"
  op: "Const"
  device: "/device:CPU:0"
  attr {
    key: "_output_shapes"
    value {
      list {
        shape {
          dim {
            size: 1
          }
        }
      }
    }
  }
  attr {
    key: "dtype"
    value {
      type: DT_STRING
    }
  }
  attr {
    key: "value"
    value {
      tensor {
        dtype: DT_STRING
        tensor_shape {
          dim {
            size: 1
          }
        }
        string_val: "conv1/biases"
      }
    }
  }
}
node {
  name: "save/RestoreV2_5/shape_and_slices"
  op: "Const"
  device: "/device:CPU:0"
  attr {
    key: "_output_shapes"
    value {
      list {
        shape {
          dim {
            size: 1
          }
        }
      }
    }
  }
  attr {
    key: "dtype"
    value {
      type: DT_STRING
    }
  }
  attr {
    key: "value"
    value {
      tensor {
        dtype: DT_STRING
        tensor_shape {
          dim {
            size: 1
          }
        }
        string_val: ""
      }
    }
  }
}
node {
  name: "save/RestoreV2_5"
  op: "RestoreV2"
  input: "save/Const"
  input: "save/RestoreV2_5/tensor_names"
  input: "save/RestoreV2_5/shape_and_slices"
  device: "/device:CPU:0"
  attr {
    key: "_output_shapes"
    value {
      list {
        shape {
          unknown_rank: true
        }
      }
    }
  }
  attr {
    key: "dtypes"
    value {
      list {
        type: DT_FLOAT
      }
    }
  }
}
node {
  name: "save/Assign_5"
  op: "Assign"
  input: "conv1/biases"
  input: "save/RestoreV2_5"
  device: "/device:CPU:0"
  attr {
    key: "T"
    value {
      type: DT_FLOAT
    }
  }
  attr {
    key: "_class"
    value {
      list {
        s: "loc:@conv1/biases"
      }
    }
  }
  attr {
    key: "_output_shapes"
    value {
      list {
        shape {
          dim {
            size: 64
          }
        }
      }
    }
  }
  attr {
    key: "use_locking"
    value {
      b: true
    }
  }
  attr {
    key: "validate_shape"
    value {
      b: true
    }
  }
}
node {
  name: "save/RestoreV2_6/tensor_names"
  op: "Const"
  device: "/device:CPU:0"
  attr {
    key: "_output_shapes"
    value {
      list {
        shape {
          dim {
            size: 1
          }
        }
      }
    }
  }
  attr {
    key: "dtype"
    value {
      type: DT_STRING
    }
  }
  attr {
    key: "value"
    value {
      tensor {
        dtype: DT_STRING
        tensor_shape {
          dim {
            size: 1
          }
        }
        string_val: "conv1/biases/ExponentialMovingAverage"
      }
    }
  }
}
node {
  name: "save/RestoreV2_6/shape_and_slices"
  op: "Const"
  device: "/device:CPU:0"
  attr {
    key: "_output_shapes"
    value {
      list {
        shape {
          dim {
            size: 1
          }
        }
      }
    }
  }
  attr {
    key: "dtype"
    value {
      type: DT_STRING
    }
  }
  attr {
    key: "value"
    value {
      tensor {
        dtype: DT_STRING
        tensor_shape {
          dim {
            size: 1
          }
        }
        string_val: ""
      }
    }
  }
}
node {
  name: "save/RestoreV2_6"
  op: "RestoreV2"
  input: "save/Const"
  input: "save/RestoreV2_6/tensor_names"
  input: "save/RestoreV2_6/shape_and_slices"
  device: "/device:CPU:0"
  attr {
    key: "_output_shapes"
    value {
      list {
        shape {
          unknown_rank: true
        }
      }
    }
  }
  attr {
    key: "dtypes"
    value {
      list {
        type: DT_FLOAT
      }
    }
  }
}
node {
  name: "save/Assign_6"
  op: "Assign"
  input: "conv1/biases/ExponentialMovingAverage"
  input: "save/RestoreV2_6"
  device: "/device:CPU:0"
  attr {
    key: "T"
    value {
      type: DT_FLOAT
    }
  }
  attr {
    key: "_class"
    value {
      list {
        s: "loc:@conv1/biases"
      }
    }
  }
  attr {
    key: "_output_shapes"
    value {
      list {
        shape {
          dim {
            size: 64
          }
        }
      }
    }
  }
  attr {
    key: "use_locking"
    value {
      b: true
    }
  }
  attr {
    key: "validate_shape"
    value {
      b: true
    }
  }
}
node {
  name: "save/RestoreV2_7/tensor_names"
  op: "Const"
  device: "/device:CPU:0"
  attr {
    key: "_output_shapes"
    value {
      list {
        shape {
          dim {
            size: 1
          }
        }
      }
    }
  }
  attr {
    key: "dtype"
    value {
      type: DT_STRING
    }
  }
  attr {
    key: "value"
    value {
      tensor {
        dtype: DT_STRING
        tensor_shape {
          dim {
            size: 1
          }
        }
        string_val: "conv1/weights"
      }
    }
  }
}
node {
  name: "save/RestoreV2_7/shape_and_slices"
  op: "Const"
  device: "/device:CPU:0"
  attr {
    key: "_output_shapes"
    value {
      list {
        shape {
          dim {
            size: 1
          }
        }
      }
    }
  }
  attr {
    key: "dtype"
    value {
      type: DT_STRING
    }
  }
  attr {
    key: "value"
    value {
      tensor {
        dtype: DT_STRING
        tensor_shape {
          dim {
            size: 1
          }
        }
        string_val: ""
      }
    }
  }
}
node {
  name: "save/RestoreV2_7"
  op: "RestoreV2"
  input: "save/Const"
  input: "save/RestoreV2_7/tensor_names"
  input: "save/RestoreV2_7/shape_and_slices"
  device: "/device:CPU:0"
  attr {
    key: "_output_shapes"
    value {
      list {
        shape {
          unknown_rank: true
        }
      }
    }
  }
  attr {
    key: "dtypes"
    value {
      list {
        type: DT_FLOAT
      }
    }
  }
}
node {
  name: "save/Assign_7"
  op: "Assign"
  input: "conv1/weights"
  input: "save/RestoreV2_7"
  device: "/device:CPU:0"
  attr {
    key: "T"
    value {
      type: DT_FLOAT
    }
  }
  attr {
    key: "_class"
    value {
      list {
        s: "loc:@conv1/weights"
      }
    }
  }
  attr {
    key: "_output_shapes"
    value {
      list {
        shape {
          dim {
            size: 5
          }
          dim {
            size: 5
          }
          dim {
            size: 3
          }
          dim {
            size: 64
          }
        }
      }
    }
  }
  attr {
    key: "use_locking"
    value {
      b: true
    }
  }
  attr {
    key: "validate_shape"
    value {
      b: true
    }
  }
}
node {
  name: "save/RestoreV2_8/tensor_names"
  op: "Const"
  device: "/device:CPU:0"
  attr {
    key: "_output_shapes"
    value {
      list {
        shape {
          dim {
            size: 1
          }
        }
      }
    }
  }
  attr {
    key: "dtype"
    value {
      type: DT_STRING
    }
  }
  attr {
    key: "value"
    value {
      tensor {
        dtype: DT_STRING
        tensor_shape {
          dim {
            size: 1
          }
        }
        string_val: "conv1/weights/ExponentialMovingAverage"
      }
    }
  }
}
node {
  name: "save/RestoreV2_8/shape_and_slices"
  op: "Const"
  device: "/device:CPU:0"
  attr {
    key: "_output_shapes"
    value {
      list {
        shape {
          dim {
            size: 1
          }
        }
      }
    }
  }
  attr {
    key: "dtype"
    value {
      type: DT_STRING
    }
  }
  attr {
    key: "value"
    value {
      tensor {
        dtype: DT_STRING
        tensor_shape {
          dim {
            size: 1
          }
        }
        string_val: ""
      }
    }
  }
}
node {
  name: "save/RestoreV2_8"
  op: "RestoreV2"
  input: "save/Const"
  input: "save/RestoreV2_8/tensor_names"
  input: "save/RestoreV2_8/shape_and_slices"
  device: "/device:CPU:0"
  attr {
    key: "_output_shapes"
    value {
      list {
        shape {
          unknown_rank: true
        }
      }
    }
  }
  attr {
    key: "dtypes"
    value {
      list {
        type: DT_FLOAT
      }
    }
  }
}
node {
  name: "save/Assign_8"
  op: "Assign"
  input: "conv1/weights/ExponentialMovingAverage"
  input: "save/RestoreV2_8"
  device: "/device:CPU:0"
  attr {
    key: "T"
    value {
      type: DT_FLOAT
    }
  }
  attr {
    key: "_class"
    value {
      list {
        s: "loc:@conv1/weights"
      }
    }
  }
  attr {
    key: "_output_shapes"
    value {
      list {
        shape {
          dim {
            size: 5
          }
          dim {
            size: 5
          }
          dim {
            size: 3
          }
          dim {
            size: 64
          }
        }
      }
    }
  }
  attr {
    key: "use_locking"
    value {
      b: true
    }
  }
  attr {
    key: "validate_shape"
    value {
      b: true
    }
  }
}
node {
  name: "save/RestoreV2_9/tensor_names"
  op: "Const"
  device: "/device:CPU:0"
  attr {
    key: "_output_shapes"
    value {
      list {
        shape {
          dim {
            size: 1
          }
        }
      }
    }
  }
  attr {
    key: "dtype"
    value {
      type: DT_STRING
    }
  }
  attr {
    key: "value"
    value {
      tensor {
        dtype: DT_STRING
        tensor_shape {
          dim {
            size: 1
          }
        }
        string_val: "local3/biases"
      }
    }
  }
}
node {
  name: "save/RestoreV2_9/shape_and_slices"
  op: "Const"
  device: "/device:CPU:0"
  attr {
    key: "_output_shapes"
    value {
      list {
        shape {
          dim {
            size: 1
          }
        }
      }
    }
  }
  attr {
    key: "dtype"
    value {
      type: DT_STRING
    }
  }
  attr {
    key: "value"
    value {
      tensor {
        dtype: DT_STRING
        tensor_shape {
          dim {
            size: 1
          }
        }
        string_val: ""
      }
    }
  }
}
node {
  name: "save/RestoreV2_9"
  op: "RestoreV2"
  input: "save/Const"
  input: "save/RestoreV2_9/tensor_names"
  input: "save/RestoreV2_9/shape_and_slices"
  device: "/device:CPU:0"
  attr {
    key: "_output_shapes"
    value {
      list {
        shape {
          unknown_rank: true
        }
      }
    }
  }
  attr {
    key: "dtypes"
    value {
      list {
        type: DT_FLOAT
      }
    }
  }
}
node {
  name: "save/Assign_9"
  op: "Assign"
  input: "local3/biases"
  input: "save/RestoreV2_9"
  device: "/device:CPU:0"
  attr {
    key: "T"
    value {
      type: DT_FLOAT
    }
  }
  attr {
    key: "_class"
    value {
      list {
        s: "loc:@local3/biases"
      }
    }
  }
  attr {
    key: "_output_shapes"
    value {
      list {
        shape {
          dim {
            size: 384
          }
        }
      }
    }
  }
  attr {
    key: "use_locking"
    value {
      b: true
    }
  }
  attr {
    key: "validate_shape"
    value {
      b: true
    }
  }
}
node {
  name: "save/RestoreV2_10/tensor_names"
  op: "Const"
  device: "/device:CPU:0"
  attr {
    key: "_output_shapes"
    value {
      list {
        shape {
          dim {
            size: 1
          }
        }
      }
    }
  }
  attr {
    key: "dtype"
    value {
      type: DT_STRING
    }
  }
  attr {
    key: "value"
    value {
      tensor {
        dtype: DT_STRING
        tensor_shape {
          dim {
            size: 1
          }
        }
        string_val: "local3/biases/ExponentialMovingAverage"
      }
    }
  }
}
node {
  name: "save/RestoreV2_10/shape_and_slices"
  op: "Const"
  device: "/device:CPU:0"
  attr {
    key: "_output_shapes"
    value {
      list {
        shape {
          dim {
            size: 1
          }
        }
      }
    }
  }
  attr {
    key: "dtype"
    value {
      type: DT_STRING
    }
  }
  attr {
    key: "value"
    value {
      tensor {
        dtype: DT_STRING
        tensor_shape {
          dim {
            size: 1
          }
        }
        string_val: ""
      }
    }
  }
}
node {
  name: "save/RestoreV2_10"
  op: "RestoreV2"
  input: "save/Const"
  input: "save/RestoreV2_10/tensor_names"
  input: "save/RestoreV2_10/shape_and_slices"
  device: "/device:CPU:0"
  attr {
    key: "_output_shapes"
    value {
      list {
        shape {
          unknown_rank: true
        }
      }
    }
  }
  attr {
    key: "dtypes"
    value {
      list {
        type: DT_FLOAT
      }
    }
  }
}
node {
  name: "save/Assign_10"
  op: "Assign"
  input: "local3/biases/ExponentialMovingAverage"
  input: "save/RestoreV2_10"
  device: "/device:CPU:0"
  attr {
    key: "T"
    value {
      type: DT_FLOAT
    }
  }
  attr {
    key: "_class"
    value {
      list {
        s: "loc:@local3/biases"
      }
    }
  }
  attr {
    key: "_output_shapes"
    value {
      list {
        shape {
          dim {
            size: 384
          }
        }
      }
    }
  }
  attr {
    key: "use_locking"
    value {
      b: true
    }
  }
  attr {
    key: "validate_shape"
    value {
      b: true
    }
  }
}
node {
  name: "save/RestoreV2_11/tensor_names"
  op: "Const"
  device: "/device:CPU:0"
  attr {
    key: "_output_shapes"
    value {
      list {
        shape {
          dim {
            size: 1
          }
        }
      }
    }
  }
  attr {
    key: "dtype"
    value {
      type: DT_STRING
    }
  }
  attr {
    key: "value"
    value {
      tensor {
        dtype: DT_STRING
        tensor_shape {
          dim {
            size: 1
          }
        }
        string_val: "local3/weights"
      }
    }
  }
}
node {
  name: "save/RestoreV2_11/shape_and_slices"
  op: "Const"
  device: "/device:CPU:0"
  attr {
    key: "_output_shapes"
    value {
      list {
        shape {
          dim {
            size: 1
          }
        }
      }
    }
  }
  attr {
    key: "dtype"
    value {
      type: DT_STRING
    }
  }
  attr {
    key: "value"
    value {
      tensor {
        dtype: DT_STRING
        tensor_shape {
          dim {
            size: 1
          }
        }
        string_val: ""
      }
    }
  }
}
node {
  name: "save/RestoreV2_11"
  op: "RestoreV2"
  input: "save/Const"
  input: "save/RestoreV2_11/tensor_names"
  input: "save/RestoreV2_11/shape_and_slices"
  device: "/device:CPU:0"
  attr {
    key: "_output_shapes"
    value {
      list {
        shape {
          unknown_rank: true
        }
      }
    }
  }
  attr {
    key: "dtypes"
    value {
      list {
        type: DT_FLOAT
      }
    }
  }
}
node {
  name: "save/Assign_11"
  op: "Assign"
  input: "local3/weights"
  input: "save/RestoreV2_11"
  device: "/device:CPU:0"
  attr {
    key: "T"
    value {
      type: DT_FLOAT
    }
  }
  attr {
    key: "_class"
    value {
      list {
        s: "loc:@local3/weights"
      }
    }
  }
  attr {
    key: "_output_shapes"
    value {
      list {
        shape {
          dim {
            size: 9216
          }
          dim {
            size: 384
          }
        }
      }
    }
  }
  attr {
    key: "use_locking"
    value {
      b: true
    }
  }
  attr {
    key: "validate_shape"
    value {
      b: true
    }
  }
}
node {
  name: "save/RestoreV2_12/tensor_names"
  op: "Const"
  device: "/device:CPU:0"
  attr {
    key: "_output_shapes"
    value {
      list {
        shape {
          dim {
            size: 1
          }
        }
      }
    }
  }
  attr {
    key: "dtype"
    value {
      type: DT_STRING
    }
  }
  attr {
    key: "value"
    value {
      tensor {
        dtype: DT_STRING
        tensor_shape {
          dim {
            size: 1
          }
        }
        string_val: "local3/weights/ExponentialMovingAverage"
      }
    }
  }
}
node {
  name: "save/RestoreV2_12/shape_and_slices"
  op: "Const"
  device: "/device:CPU:0"
  attr {
    key: "_output_shapes"
    value {
      list {
        shape {
          dim {
            size: 1
          }
        }
      }
    }
  }
  attr {
    key: "dtype"
    value {
      type: DT_STRING
    }
  }
  attr {
    key: "value"
    value {
      tensor {
        dtype: DT_STRING
        tensor_shape {
          dim {
            size: 1
          }
        }
        string_val: ""
      }
    }
  }
}
node {
  name: "save/RestoreV2_12"
  op: "RestoreV2"
  input: "save/Const"
  input: "save/RestoreV2_12/tensor_names"
  input: "save/RestoreV2_12/shape_and_slices"
  device: "/device:CPU:0"
  attr {
    key: "_output_shapes"
    value {
      list {
        shape {
          unknown_rank: true
        }
      }
    }
  }
  attr {
    key: "dtypes"
    value {
      list {
        type: DT_FLOAT
      }
    }
  }
}
node {
  name: "save/Assign_12"
  op: "Assign"
  input: "local3/weights/ExponentialMovingAverage"
  input: "save/RestoreV2_12"
  device: "/device:CPU:0"
  attr {
    key: "T"
    value {
      type: DT_FLOAT
    }
  }
  attr {
    key: "_class"
    value {
      list {
        s: "loc:@local3/weights"
      }
    }
  }
  attr {
    key: "_output_shapes"
    value {
      list {
        shape {
          dim {
            size: 9216
          }
          dim {
            size: 384
          }
        }
      }
    }
  }
  attr {
    key: "use_locking"
    value {
      b: true
    }
  }
  attr {
    key: "validate_shape"
    value {
      b: true
    }
  }
}
node {
  name: "save/RestoreV2_13/tensor_names"
  op: "Const"
  device: "/device:CPU:0"
  attr {
    key: "_output_shapes"
    value {
      list {
        shape {
          dim {
            size: 1
          }
        }
      }
    }
  }
  attr {
    key: "dtype"
    value {
      type: DT_STRING
    }
  }
  attr {
    key: "value"
    value {
      tensor {
        dtype: DT_STRING
        tensor_shape {
          dim {
            size: 1
          }
        }
        string_val: "local4/biases"
      }
    }
  }
}
node {
  name: "save/RestoreV2_13/shape_and_slices"
  op: "Const"
  device: "/device:CPU:0"
  attr {
    key: "_output_shapes"
    value {
      list {
        shape {
          dim {
            size: 1
          }
        }
      }
    }
  }
  attr {
    key: "dtype"
    value {
      type: DT_STRING
    }
  }
  attr {
    key: "value"
    value {
      tensor {
        dtype: DT_STRING
        tensor_shape {
          dim {
            size: 1
          }
        }
        string_val: ""
      }
    }
  }
}
node {
  name: "save/RestoreV2_13"
  op: "RestoreV2"
  input: "save/Const"
  input: "save/RestoreV2_13/tensor_names"
  input: "save/RestoreV2_13/shape_and_slices"
  device: "/device:CPU:0"
  attr {
    key: "_output_shapes"
    value {
      list {
        shape {
          unknown_rank: true
        }
      }
    }
  }
  attr {
    key: "dtypes"
    value {
      list {
        type: DT_FLOAT
      }
    }
  }
}
node {
  name: "save/Assign_13"
  op: "Assign"
  input: "local4/biases"
  input: "save/RestoreV2_13"
  device: "/device:CPU:0"
  attr {
    key: "T"
    value {
      type: DT_FLOAT
    }
  }
  attr {
    key: "_class"
    value {
      list {
        s: "loc:@local4/biases"
      }
    }
  }
  attr {
    key: "_output_shapes"
    value {
      list {
        shape {
          dim {
            size: 192
          }
        }
      }
    }
  }
  attr {
    key: "use_locking"
    value {
      b: true
    }
  }
  attr {
    key: "validate_shape"
    value {
      b: true
    }
  }
}
node {
  name: "save/RestoreV2_14/tensor_names"
  op: "Const"
  device: "/device:CPU:0"
  attr {
    key: "_output_shapes"
    value {
      list {
        shape {
          dim {
            size: 1
          }
        }
      }
    }
  }
  attr {
    key: "dtype"
    value {
      type: DT_STRING
    }
  }
  attr {
    key: "value"
    value {
      tensor {
        dtype: DT_STRING
        tensor_shape {
          dim {
            size: 1
          }
        }
        string_val: "local4/biases/ExponentialMovingAverage"
      }
    }
  }
}
node {
  name: "save/RestoreV2_14/shape_and_slices"
  op: "Const"
  device: "/device:CPU:0"
  attr {
    key: "_output_shapes"
    value {
      list {
        shape {
          dim {
            size: 1
          }
        }
      }
    }
  }
  attr {
    key: "dtype"
    value {
      type: DT_STRING
    }
  }
  attr {
    key: "value"
    value {
      tensor {
        dtype: DT_STRING
        tensor_shape {
          dim {
            size: 1
          }
        }
        string_val: ""
      }
    }
  }
}
node {
  name: "save/RestoreV2_14"
  op: "RestoreV2"
  input: "save/Const"
  input: "save/RestoreV2_14/tensor_names"
  input: "save/RestoreV2_14/shape_and_slices"
  device: "/device:CPU:0"
  attr {
    key: "_output_shapes"
    value {
      list {
        shape {
          unknown_rank: true
        }
      }
    }
  }
  attr {
    key: "dtypes"
    value {
      list {
        type: DT_FLOAT
      }
    }
  }
}
node {
  name: "save/Assign_14"
  op: "Assign"
  input: "local4/biases/ExponentialMovingAverage"
  input: "save/RestoreV2_14"
  device: "/device:CPU:0"
  attr {
    key: "T"
    value {
      type: DT_FLOAT
    }
  }
  attr {
    key: "_class"
    value {
      list {
        s: "loc:@local4/biases"
      }
    }
  }
  attr {
    key: "_output_shapes"
    value {
      list {
        shape {
          dim {
            size: 192
          }
        }
      }
    }
  }
  attr {
    key: "use_locking"
    value {
      b: true
    }
  }
  attr {
    key: "validate_shape"
    value {
      b: true
    }
  }
}
node {
  name: "save/RestoreV2_15/tensor_names"
  op: "Const"
  device: "/device:CPU:0"
  attr {
    key: "_output_shapes"
    value {
      list {
        shape {
          dim {
            size: 1
          }
        }
      }
    }
  }
  attr {
    key: "dtype"
    value {
      type: DT_STRING
    }
  }
  attr {
    key: "value"
    value {
      tensor {
        dtype: DT_STRING
        tensor_shape {
          dim {
            size: 1
          }
        }
        string_val: "local4/weights"
      }
    }
  }
}
node {
  name: "save/RestoreV2_15/shape_and_slices"
  op: "Const"
  device: "/device:CPU:0"
  attr {
    key: "_output_shapes"
    value {
      list {
        shape {
          dim {
            size: 1
          }
        }
      }
    }
  }
  attr {
    key: "dtype"
    value {
      type: DT_STRING
    }
  }
  attr {
    key: "value"
    value {
      tensor {
        dtype: DT_STRING
        tensor_shape {
          dim {
            size: 1
          }
        }
        string_val: ""
      }
    }
  }
}
node {
  name: "save/RestoreV2_15"
  op: "RestoreV2"
  input: "save/Const"
  input: "save/RestoreV2_15/tensor_names"
  input: "save/RestoreV2_15/shape_and_slices"
  device: "/device:CPU:0"
  attr {
    key: "_output_shapes"
    value {
      list {
        shape {
          unknown_rank: true
        }
      }
    }
  }
  attr {
    key: "dtypes"
    value {
      list {
        type: DT_FLOAT
      }
    }
  }
}
node {
  name: "save/Assign_15"
  op: "Assign"
  input: "local4/weights"
  input: "save/RestoreV2_15"
  device: "/device:CPU:0"
  attr {
    key: "T"
    value {
      type: DT_FLOAT
    }
  }
  attr {
    key: "_class"
    value {
      list {
        s: "loc:@local4/weights"
      }
    }
  }
  attr {
    key: "_output_shapes"
    value {
      list {
        shape {
          dim {
            size: 384
          }
          dim {
            size: 192
          }
        }
      }
    }
  }
  attr {
    key: "use_locking"
    value {
      b: true
    }
  }
  attr {
    key: "validate_shape"
    value {
      b: true
    }
  }
}
node {
  name: "save/RestoreV2_16/tensor_names"
  op: "Const"
  device: "/device:CPU:0"
  attr {
    key: "_output_shapes"
    value {
      list {
        shape {
          dim {
            size: 1
          }
        }
      }
    }
  }
  attr {
    key: "dtype"
    value {
      type: DT_STRING
    }
  }
  attr {
    key: "value"
    value {
      tensor {
        dtype: DT_STRING
        tensor_shape {
          dim {
            size: 1
          }
        }
        string_val: "local4/weights/ExponentialMovingAverage"
      }
    }
  }
}
node {
  name: "save/RestoreV2_16/shape_and_slices"
  op: "Const"
  device: "/device:CPU:0"
  attr {
    key: "_output_shapes"
    value {
      list {
        shape {
          dim {
            size: 1
          }
        }
      }
    }
  }
  attr {
    key: "dtype"
    value {
      type: DT_STRING
    }
  }
  attr {
    key: "value"
    value {
      tensor {
        dtype: DT_STRING
        tensor_shape {
          dim {
            size: 1
          }
        }
        string_val: ""
      }
    }
  }
}
node {
  name: "save/RestoreV2_16"
  op: "RestoreV2"
  input: "save/Const"
  input: "save/RestoreV2_16/tensor_names"
  input: "save/RestoreV2_16/shape_and_slices"
  device: "/device:CPU:0"
  attr {
    key: "_output_shapes"
    value {
      list {
        shape {
          unknown_rank: true
        }
      }
    }
  }
  attr {
    key: "dtypes"
    value {
      list {
        type: DT_FLOAT
      }
    }
  }
}
node {
  name: "save/Assign_16"
  op: "Assign"
  input: "local4/weights/ExponentialMovingAverage"
  input: "save/RestoreV2_16"
  device: "/device:CPU:0"
  attr {
    key: "T"
    value {
      type: DT_FLOAT
    }
  }
  attr {
    key: "_class"
    value {
      list {
        s: "loc:@local4/weights"
      }
    }
  }
  attr {
    key: "_output_shapes"
    value {
      list {
        shape {
          dim {
            size: 384
          }
          dim {
            size: 192
          }
        }
      }
    }
  }
  attr {
    key: "use_locking"
    value {
      b: true
    }
  }
  attr {
    key: "validate_shape"
    value {
      b: true
    }
  }
}
node {
  name: "save/RestoreV2_17/tensor_names"
  op: "Const"
  device: "/device:CPU:0"
  attr {
    key: "_output_shapes"
    value {
      list {
        shape {
          dim {
            size: 1
          }
        }
      }
    }
  }
  attr {
    key: "dtype"
    value {
      type: DT_STRING
    }
  }
  attr {
    key: "value"
    value {
      tensor {
        dtype: DT_STRING
        tensor_shape {
          dim {
            size: 1
          }
        }
        string_val: "softmax_linear/biases"
      }
    }
  }
}
node {
  name: "save/RestoreV2_17/shape_and_slices"
  op: "Const"
  device: "/device:CPU:0"
  attr {
    key: "_output_shapes"
    value {
      list {
        shape {
          dim {
            size: 1
          }
        }
      }
    }
  }
  attr {
    key: "dtype"
    value {
      type: DT_STRING
    }
  }
  attr {
    key: "value"
    value {
      tensor {
        dtype: DT_STRING
        tensor_shape {
          dim {
            size: 1
          }
        }
        string_val: ""
      }
    }
  }
}
node {
  name: "save/RestoreV2_17"
  op: "RestoreV2"
  input: "save/Const"
  input: "save/RestoreV2_17/tensor_names"
  input: "save/RestoreV2_17/shape_and_slices"
  device: "/device:CPU:0"
  attr {
    key: "_output_shapes"
    value {
      list {
        shape {
          unknown_rank: true
        }
      }
    }
  }
  attr {
    key: "dtypes"
    value {
      list {
        type: DT_FLOAT
      }
    }
  }
}
node {
  name: "save/Assign_17"
  op: "Assign"
  input: "softmax_linear/biases"
  input: "save/RestoreV2_17"
  device: "/device:CPU:0"
  attr {
    key: "T"
    value {
      type: DT_FLOAT
    }
  }
  attr {
    key: "_class"
    value {
      list {
        s: "loc:@softmax_linear/biases"
      }
    }
  }
  attr {
    key: "_output_shapes"
    value {
      list {
        shape {
          dim {
            size: 2
          }
        }
      }
    }
  }
  attr {
    key: "use_locking"
    value {
      b: true
    }
  }
  attr {
    key: "validate_shape"
    value {
      b: true
    }
  }
}
node {
  name: "save/RestoreV2_18/tensor_names"
  op: "Const"
  device: "/device:CPU:0"
  attr {
    key: "_output_shapes"
    value {
      list {
        shape {
          dim {
            size: 1
          }
        }
      }
    }
  }
  attr {
    key: "dtype"
    value {
      type: DT_STRING
    }
  }
  attr {
    key: "value"
    value {
      tensor {
        dtype: DT_STRING
        tensor_shape {
          dim {
            size: 1
          }
        }
        string_val: "softmax_linear/biases/ExponentialMovingAverage"
      }
    }
  }
}
node {
  name: "save/RestoreV2_18/shape_and_slices"
  op: "Const"
  device: "/device:CPU:0"
  attr {
    key: "_output_shapes"
    value {
      list {
        shape {
          dim {
            size: 1
          }
        }
      }
    }
  }
  attr {
    key: "dtype"
    value {
      type: DT_STRING
    }
  }
  attr {
    key: "value"
    value {
      tensor {
        dtype: DT_STRING
        tensor_shape {
          dim {
            size: 1
          }
        }
        string_val: ""
      }
    }
  }
}
node {
  name: "save/RestoreV2_18"
  op: "RestoreV2"
  input: "save/Const"
  input: "save/RestoreV2_18/tensor_names"
  input: "save/RestoreV2_18/shape_and_slices"
  device: "/device:CPU:0"
  attr {
    key: "_output_shapes"
    value {
      list {
        shape {
          unknown_rank: true
        }
      }
    }
  }
  attr {
    key: "dtypes"
    value {
      list {
        type: DT_FLOAT
      }
    }
  }
}
node {
  name: "save/Assign_18"
  op: "Assign"
  input: "softmax_linear/biases/ExponentialMovingAverage"
  input: "save/RestoreV2_18"
  device: "/device:CPU:0"
  attr {
    key: "T"
    value {
      type: DT_FLOAT
    }
  }
  attr {
    key: "_class"
    value {
      list {
        s: "loc:@softmax_linear/biases"
      }
    }
  }
  attr {
    key: "_output_shapes"
    value {
      list {
        shape {
          dim {
            size: 2
          }
        }
      }
    }
  }
  attr {
    key: "use_locking"
    value {
      b: true
    }
  }
  attr {
    key: "validate_shape"
    value {
      b: true
    }
  }
}
node {
  name: "save/RestoreV2_19/tensor_names"
  op: "Const"
  device: "/device:CPU:0"
  attr {
    key: "_output_shapes"
    value {
      list {
        shape {
          dim {
            size: 1
          }
        }
      }
    }
  }
  attr {
    key: "dtype"
    value {
      type: DT_STRING
    }
  }
  attr {
    key: "value"
    value {
      tensor {
        dtype: DT_STRING
        tensor_shape {
          dim {
            size: 1
          }
        }
        string_val: "softmax_linear/weights"
      }
    }
  }
}
node {
  name: "save/RestoreV2_19/shape_and_slices"
  op: "Const"
  device: "/device:CPU:0"
  attr {
    key: "_output_shapes"
    value {
      list {
        shape {
          dim {
            size: 1
          }
        }
      }
    }
  }
  attr {
    key: "dtype"
    value {
      type: DT_STRING
    }
  }
  attr {
    key: "value"
    value {
      tensor {
        dtype: DT_STRING
        tensor_shape {
          dim {
            size: 1
          }
        }
        string_val: ""
      }
    }
  }
}
node {
  name: "save/RestoreV2_19"
  op: "RestoreV2"
  input: "save/Const"
  input: "save/RestoreV2_19/tensor_names"
  input: "save/RestoreV2_19/shape_and_slices"
  device: "/device:CPU:0"
  attr {
    key: "_output_shapes"
    value {
      list {
        shape {
          unknown_rank: true
        }
      }
    }
  }
  attr {
    key: "dtypes"
    value {
      list {
        type: DT_FLOAT
      }
    }
  }
}
node {
  name: "save/Assign_19"
  op: "Assign"
  input: "softmax_linear/weights"
  input: "save/RestoreV2_19"
  device: "/device:CPU:0"
  attr {
    key: "T"
    value {
      type: DT_FLOAT
    }
  }
  attr {
    key: "_class"
    value {
      list {
        s: "loc:@softmax_linear/weights"
      }
    }
  }
  attr {
    key: "_output_shapes"
    value {
      list {
        shape {
          dim {
            size: 192
          }
          dim {
            size: 2
          }
        }
      }
    }
  }
  attr {
    key: "use_locking"
    value {
      b: true
    }
  }
  attr {
    key: "validate_shape"
    value {
      b: true
    }
  }
}
node {
  name: "save/RestoreV2_20/tensor_names"
  op: "Const"
  device: "/device:CPU:0"
  attr {
    key: "_output_shapes"
    value {
      list {
        shape {
          dim {
            size: 1
          }
        }
      }
    }
  }
  attr {
    key: "dtype"
    value {
      type: DT_STRING
    }
  }
  attr {
    key: "value"
    value {
      tensor {
        dtype: DT_STRING
        tensor_shape {
          dim {
            size: 1
          }
        }
        string_val: "softmax_linear/weights/ExponentialMovingAverage"
      }
    }
  }
}
node {
  name: "save/RestoreV2_20/shape_and_slices"
  op: "Const"
  device: "/device:CPU:0"
  attr {
    key: "_output_shapes"
    value {
      list {
        shape {
          dim {
            size: 1
          }
        }
      }
    }
  }
  attr {
    key: "dtype"
    value {
      type: DT_STRING
    }
  }
  attr {
    key: "value"
    value {
      tensor {
        dtype: DT_STRING
        tensor_shape {
          dim {
            size: 1
          }
        }
        string_val: ""
      }
    }
  }
}
node {
  name: "save/RestoreV2_20"
  op: "RestoreV2"
  input: "save/Const"
  input: "save/RestoreV2_20/tensor_names"
  input: "save/RestoreV2_20/shape_and_slices"
  device: "/device:CPU:0"
  attr {
    key: "_output_shapes"
    value {
      list {
        shape {
          unknown_rank: true
        }
      }
    }
  }
  attr {
    key: "dtypes"
    value {
      list {
        type: DT_FLOAT
      }
    }
  }
}
node {
  name: "save/Assign_20"
  op: "Assign"
  input: "softmax_linear/weights/ExponentialMovingAverage"
  input: "save/RestoreV2_20"
  device: "/device:CPU:0"
  attr {
    key: "T"
    value {
      type: DT_FLOAT
    }
  }
  attr {
    key: "_class"
    value {
      list {
        s: "loc:@softmax_linear/weights"
      }
    }
  }
  attr {
    key: "_output_shapes"
    value {
      list {
        shape {
          dim {
            size: 192
          }
          dim {
            size: 2
          }
        }
      }
    }
  }
  attr {
    key: "use_locking"
    value {
      b: true
    }
  }
  attr {
    key: "validate_shape"
    value {
      b: true
    }
  }
}
node {
  name: "save/restore_shard_1"
  op: "NoOp"
  input: "^save/Assign_5"
  input: "^save/Assign_6"
  input: "^save/Assign_7"
  input: "^save/Assign_8"
  input: "^save/Assign_9"
  input: "^save/Assign_10"
  input: "^save/Assign_11"
  input: "^save/Assign_12"
  input: "^save/Assign_13"
  input: "^save/Assign_14"
  input: "^save/Assign_15"
  input: "^save/Assign_16"
  input: "^save/Assign_17"
  input: "^save/Assign_18"
  input: "^save/Assign_19"
  input: "^save/Assign_20"
  device: "/device:CPU:0"
}
node {
  name: "save/restore_all/NoOp"
  op: "NoOp"
  input: "^save/restore_shard"
}
node {
  name: "save/restore_all/NoOp_1"
  op: "NoOp"
  input: "^save/restore_shard_1"
  device: "/device:CPU:0"
}
node {
  name: "save/restore_all"
  op: "NoOp"
  input: "^save/restore_all/NoOp"
  input: "^save/restore_all/NoOp_1"
}
versions {
  producer: 22
}
